…
I0405 18:42:50.660418  1665 net.cpp:294] The NetState phase (0) differed from the phase (1) specified by a rule in layer accuracy
I0405 18:42:50.660776  1665 net.cpp:51] Initializing net from parameters: 
name: "ResNet-10_CORe50_mid_CaffeNet"
state {
  phase: TRAIN
}
layer {
  name: "data"
  type: "ImageData"
  top: "data"
  top: "label"
  include {
    phase: TRAIN
  }
  transform_param {
    mirror: true
    crop_size: 128
  }
  image_data_param {
    source: "data/sII_cum/run0/train_batch_00_filelist.txt"
    batch_size: 256
    shuffle: true
    root_folder: "data/core50_128x128/"
  }
}
layer {
  name: "data_bn"
  type: "BatchNorm"
  bottom: "data"
  top: "data_bn"
  param {
    lr_mult: 0
    decay_mult: 0
  }
  param {
    lr_mult: 0
    decay_mult: 0
  }
  param {
    lr_mult: 0
    decay_mult: 0
  }
}
layer {
  name: "data_scale"
  type: "Scale"
  bottom: "data_bn"
  top: "data_bn"
  param {
    lr_mult: 1
    decay_mult: 1
  }
  param {
    lr_mult: 2
    decay_mult: 1
  }
  scale_param {
    bias_term: true
  }
}
layer {
  name: "conv1"
  type: "Convolution"
  bottom: "data_bn"
  top: "conv1"
  param {
    lr_mult: 1
    decay_mult: 1
  }
  param {
    lr_mult: 2
    decay_mult: 1
  }
  convolution_param {
    num_output: 64
    pad: 3
    kernel_size: 7
    stride: 2
    weight_filler {
      type: "msra"
      variance_norm: FAN_OUT
    }
    bias_filler {
      type: "constant"
      value: 0
    }
  }
}
layer {
  name: "conv1_bn"
  type: "BatchNorm"
  bottom: "conv1"
  top: "conv1"
  param {
    lr_mult: 0
    decay_mult: 0
  }
  param {
    lr_mult: 0
    decay_mult: 0
  }
  param {
    lr_mult: 0
    decay_mult: 0
  }
}
layer {
  name: "conv1_scale"
  type: "Scale"
  bottom: "conv1"
  top: "conv1"
  param {
    lr_mult: 1
    decay_mult: 1
  }
  param {
    lr_mult: 2
    decay_mult: 1
  }
  scale_param {
    bias_term: true
  }
}
layer {
  name: "conv1_relu"
  type: "ReLU"
  bottom: "conv1"
  top: "conv1"
}
layer {
  name: "conv1_pool"
  type: "Pooling"
  bottom: "conv1"
  top: "conv1_pool"
  pooling_param {
    kernel_size: 3
    stride: 2
  }
}
layer {
  name: "layer_64_1_conv1"
  type: "Convolution"
  bottom: "conv1_pool"
  top: "layer_64_1_conv1"
  param {
    lr_mult: 1
    decay_mult: 1
  }
  convolution_param {
    num_output: 64
    bias_term: false
    pad: 1
    kernel_size: 3
    stride: 1
    weight_filler {
      type: "msra"
    }
    bias_filler {
      type: "constant"
      value: 0
    }
  }
}
layer {
  name: "layer_64_1_bn2"
  type: "BatchNorm"
  bottom: "layer_64_1_conv1"
  top: "layer_64_1_conv1"
  param {
    lr_mult: 0
    decay_mult: 0
  }
  param {
    lr_mult: 0
    decay_mult: 0
  }
  param {
    lr_mult: 0
    decay_mult: 0
  }
}
layer {
  name: "layer_64_1_scale2"
  type: "Scale"
  bottom: "layer_64_1_conv1"
  top: "layer_64_1_conv1"
  param {
    lr_mult: 1
    decay_mult: 1
  }
  param {
    lr_mult: 2
    decay_mult: 1
  }
  scale_param {
    bias_term: true
  }
}
layer {
  name: "layer_64_1_relu2"
  type: "ReLU"
  bottom: "layer_64_1_conv1"
  top: "layer_64_1_conv1"
}
layer {
  name: "layer_64_1_conv2"
  type: "Convolution"
  bottom: "layer_64_1_conv1"
  top: "layer_64_1_conv2"
  param {
    lr_mult: 1
    decay_mult: 1
  }
  convolution_param {
    num_output: 64
    bias_term: false
    pad: 1
    kernel_size: 3
    stride: 1
    weight_filler {
      type: "msra"
    }
    bias_filler {
      type: "constant"
      value: 0
    }
  }
}
layer {
  name: "layer_64_1_sum"
  type: "Eltwise"
  bottom: "layer_64_1_conv2"
  bottom: "conv1_pool"
  top: "layer_64_1_sum"
}
layer {
  name: "layer_128_1_bn1"
  type: "BatchNorm"
  bottom: "layer_64_1_sum"
  top: "layer_128_1_bn1"
  param {
    lr_mult: 0
    decay_mult: 0
  }
  param {
    lr_mult: 0
    decay_mult: 0
  }
  param {
    lr_mult: 0
    decay_mult: 0
  }
}
layer {
  name: "layer_128_1_scale1"
  type: "Scale"
  bottom: "layer_128_1_bn1"
  top: "layer_128_1_bn1"
  param {
    lr_mult: 1
    decay_mult: 1
  }
  param {
    lr_mult: 2
    decay_mult: 1
  }
  scale_param {
    bias_term: true
  }
}
layer {
  name: "layer_128_1_relu1"
  type: "ReLU"
  bottom: "layer_128_1_bn1"
  top: "layer_128_1_bn1"
}
layer {
  name: "layer_128_1_conv1"
  type: "Convolution"
  bottom: "layer_128_1_bn1"
  top: "layer_128_1_conv1"
  param {
    lr_mult: 1
    decay_mult: 1
  }
  convolution_param {
    num_output: 128
    bias_term: false
    pad: 1
    kernel_size: 3
    stride: 2
    weight_filler {
      type: "msra"
    }
    bias_filler {
      type: "constant"
      value: 0
    }
  }
}
layer {
  name: "layer_128_1_bn2"
  type: "BatchNorm"
  bottom: "layer_128_1_conv1"
  top: "layer_128_1_conv1"
  param {
    lr_mult: 0
    decay_mult: 0
  }
  param {
    lr_mult: 0
    decay_mult: 0
  }
  param {
    lr_mult: 0
    decay_mult: 0
  }
}
layer {
  name: "layer_128_1_scale2"
  type: "Scale"
  bottom: "layer_128_1_conv1"
  top: "layer_128_1_conv1"
  param {
    lr_mult: 1
    decay_mult: 1
  }
  param {
    lr_mult: 2
    decay_mult: 1
  }
  scale_param {
    bias_term: true
  }
}
layer {
  name: "layer_128_1_relu2"
  type: "ReLU"
  bottom: "layer_128_1_conv1"
  top: "layer_128_1_conv1"
}
layer {
  name: "layer_128_1_conv2"
  type: "Convolution"
  bottom: "layer_128_1_conv1"
  top: "layer_128_1_conv2"
  param {
    lr_mult: 1
    decay_mult: 1
  }
  convolution_param {
    num_output: 128
    bias_term: false
    pad: 1
    kernel_size: 3
    stride: 1
    weight_filler {
      type: "msra"
    }
    bias_filler {
      type: "constant"
      value: 0
    }
  }
}
layer {
  name: "layer_128_1_conv_expand"
  type: "Convolution"
  bottom: "layer_128_1_bn1"
  top: "layer_128_1_conv_expand"
  param {
    lr_mult: 1
    decay_mult: 1
  }
  convolution_param {
    num_output: 128
    bias_term: false
    pad: 0
    kernel_size: 1
    stride: 2
    weight_filler {
      type: "msra"
    }
    bias_filler {
      type: "constant"
      value: 0
    }
  }
}
layer {
  name: "layer_128_1_sum"
  type: "Eltwise"
  bottom: "layer_128_1_conv2"
  bottom: "layer_128_1_conv_expand"
  top: "layer_128_1_sum"
}
layer {
  name: "layer_256_1_bn1"
  type: "BatchNorm"
  bottom: "layer_128_1_sum"
  top: "layer_256_1_bn1"
  param {
    lr_mult: 0
    decay_mult: 0
  }
  param {
    lr_mult: 0
    decay_mult: 0
  }
  param {
    lr_mult: 0
    decay_mult: 0
  }
}
layer {
  name: "layer_256_1_scale1"
  type: "Scale"
  bottom: "layer_256_1_bn1"
  top: "layer_256_1_bn1"
  param {
    lr_mult: 1
    decay_mult: 1
  }
  param {
    lr_mult: 2
    decay_mult: 1
  }
  scale_param {
    bias_term: true
  }
}
layer {
  name: "layer_256_1_relu1"
  type: "ReLU"
  bottom: "layer_256_1_bn1"
  top: "layer_256_1_bn1"
}
layer {
  name: "layer_256_1_conv1"
  type: "Convolution"
  bottom: "layer_256_1_bn1"
  top: "layer_256_1_conv1"
  param {
    lr_mult: 1
    decay_mult: 1
  }
  convolution_param {
    num_output: 256
    bias_term: false
    pad: 1
    kernel_size: 3
    stride: 2
    weight_filler {
      type: "msra"
    }
    bias_filler {
      type: "constant"
      value: 0
    }
  }
}
layer {
  name: "layer_256_1_bn2"
  type: "BatchNorm"
  bottom: "layer_256_1_conv1"
  top: "layer_256_1_conv1"
  param {
    lr_mult: 0
    decay_mult: 0
  }
  param {
    lr_mult: 0
    decay_mult: 0
  }
  param {
    lr_mult: 0
    decay_mult: 0
  }
}
layer {
  name: "layer_256_1_scale2"
  type: "Scale"
  bottom: "layer_256_1_conv1"
  top: "layer_256_1_conv1"
  param {
    lr_mult: 1
    decay_mult: 1
  }
  param {
    lr_mult: 2
    decay_mult: 1
  }
  scale_param {
    bias_term: true
  }
}
layer {
  name: "layer_256_1_relu2"
  type: "ReLU"
  bottom: "layer_256_1_conv1"
  top: "layer_256_1_conv1"
}
layer {
  name: "layer_256_1_conv2"
  type: "Convolution"
  bottom: "layer_256_1_conv1"
  top: "layer_256_1_conv2"
  param {
    lr_mult: 1
    decay_mult: 1
  }
  convolution_param {
    num_output: 256
    bias_term: false
    pad: 1
    kernel_size: 3
    stride: 1
    weight_filler {
      type: "msra"
    }
    bias_filler {
      type: "constant"
      value: 0
    }
  }
}
layer {
  name: "layer_256_1_conv_expand"
  type: "Convolution"
  bottom: "layer_256_1_bn1"
  top: "layer_256_1_conv_expand"
  param {
    lr_mult: 1
    decay_mult: 1
  }
  convolution_param {
    num_output: 256
    bias_term: false
    pad: 0
    kernel_size: 1
    stride: 2
    weight_filler {
      type: "msra"
    }
    bias_filler {
      type: "constant"
      value: 0
    }
  }
}
layer {
  name: "layer_256_1_sum"
  type: "Eltwise"
  bottom: "layer_256_1_conv2"
  bottom: "layer_256_1_conv_expand"
  top: "layer_256_1_sum"
}
layer {
  name: "layer_512_1_bn1"
  type: "BatchNorm"
  bottom: "layer_256_1_sum"
  top: "layer_512_1_bn1"
  param {
    lr_mult: 0
    decay_mult: 0
  }
  param {
    lr_mult: 0
    decay_mult: 0
  }
  param {
    lr_mult: 0
    decay_mult: 0
  }
}
layer {
  name: "layer_512_1_scale1"
  type: "Scale"
  bottom: "layer_512_1_bn1"
  top: "layer_512_1_bn1"
  param {
    lr_mult: 1
    decay_mult: 1
  }
  param {
    lr_mult: 2
    decay_mult: 1
  }
  scale_param {
    bias_term: true
  }
}
layer {
  name: "layer_512_1_relu1"
  type: "ReLU"
  bottom: "layer_512_1_bn1"
  top: "layer_512_1_bn1"
}
layer {
  name: "layer_512_1_conv1"
  type: "Convolution"
  bottom: "layer_512_1_bn1"
  top: "layer_512_1_conv1"
  param {
    lr_mult: 1
    decay_mult: 1
  }
  convolution_param {
    num_output: 512
    bias_term: false
    pad: 1
    kernel_size: 3
    stride: 2
    weight_filler {
      type: "msra"
    }
    bias_filler {
      type: "constant"
      value: 0
    }
  }
}
layer {
  name: "layer_512_1_bn2"
  type: "BatchNorm"
  bottom: "layer_512_1_conv1"
  top: "layer_512_1_conv1"
  param {
    lr_mult: 0
    decay_mult: 0
  }
  param {
    lr_mult: 0
    decay_mult: 0
  }
  param {
    lr_mult: 0
    decay_mult: 0
  }
}
layer {
  name: "layer_512_1_scale2"
  type: "Scale"
  bottom: "layer_512_1_conv1"
  top: "layer_512_1_conv1"
  param {
    lr_mult: 1
    decay_mult: 1
  }
  param {
    lr_mult: 2
    decay_mult: 1
  }
  scale_param {
    bias_term: true
  }
}
layer {
  name: "layer_512_1_relu2"
  type: "ReLU"
  bottom: "layer_512_1_conv1"
  top: "layer_512_1_conv1"
}
layer {
  name: "layer_512_1_conv2"
  type: "Convolution"
  bottom: "layer_512_1_conv1"
  top: "layer_512_1_conv2"
  param {
    lr_mult: 1
    decay_mult: 1
  }
  convolution_param {
    num_output: 512
    bias_term: false
    pad: 1
    kernel_size: 3
    stride: 1
    weight_filler {
      type: "msra"
    }
    bias_filler {
      type: "constant"
      value: 0
    }
  }
}
layer {
  name: "layer_512_1_conv_expand"
  type: "Convolution"
  bottom: "layer_512_1_bn1"
  top: "layer_512_1_conv_expand"
  param {
    lr_mult: 1
    decay_mult: 1
  }
  convolution_param {
    num_output: 512
    bias_term: false
    pad: 0
    kernel_size: 1
    stride: 2
    weight_filler {
      type: "msra"
    }
    bias_filler {
      type: "constant"
      value: 0
    }
  }
}
layer {
  name: "layer_512_1_sum"
  type: "Eltwise"
  bottom: "layer_512_1_conv2"
  bottom: "layer_512_1_conv_expand"
  top: "layer_512_1_sum"
}
layer {
  name: "last_bn"
  type: "BatchNorm"
  bottom: "layer_512_1_sum"
  top: "layer_512_1_sum"
  param {
    lr_mult: 0
    decay_mult: 0
  }
  param {
    lr_mult: 0
    decay_mult: 0
  }
  param {
    lr_mult: 0
    decay_mult: 0
  }
}
layer {
  name: "last_scale"
  type: "Scale"
  bottom: "layer_512_1_sum"
  top: "layer_512_1_sum"
  param {
    lr_mult: 1
    decay_mult: 1
  }
  param {
    lr_mult: 2
    decay_mult: 1
  }
  scale_param {
    bias_term: true
  }
}
layer {
  name: "last_relu"
  type: "ReLU"
  bottom: "layer_512_1_sum"
  top: "layer_512_1_sum"
}
layer {
  name: "global_pool"
  type: "Pooling"
  bottom: "layer_512_1_sum"
  top: "global_pool"
  pooling_param {
    pool: AVE
    global_pooling: true
  }
}
layer {
  name: "score"
  type: "InnerProduct"
  bottom: "global_pool"
  top: "score"
  param {
    lr_mult: 1
    decay_mult: 1
  }
  param {
    lr_mult: 2
    decay_mult: 1
  }
  inner_product_param {
    num_output: 1000
  }
}
layer {
  name: "loss"
  type: "SoftmaxWithLoss"
  bottom: "score"
  bottom: "label"
  top: "loss"
}
I0405 18:42:50.661028  1665 layer_factory.hpp:77] Creating layer data
I0405 18:42:50.661144  1665 net.cpp:84] Creating Layer data
I0405 18:42:50.661214  1665 net.cpp:380] data -> data
I0405 18:42:50.661274  1665 net.cpp:380] data -> label
I0405 18:42:50.661329  1665 image_data_layer.cpp:38] Opening file data/sII_cum/run0/train_batch_00_filelist.txt
I0405 18:42:50.665768  1665 image_data_layer.cpp:53] Shuffling data
I0405 18:42:50.666329  1665 image_data_layer.cpp:63] A total of 23980 images.
I0405 18:42:50.671357  1665 image_data_layer.cpp:90] output data size: 256,3,128,128
I0405 18:42:50.798693  1665 net.cpp:122] Setting up data
I0405 18:42:50.798956  1665 net.cpp:129] Top shape: 256 3 128 128 (12582912)
I0405 18:42:50.799034  1665 net.cpp:129] Top shape: 256 (256)
I0405 18:42:50.799096  1665 net.cpp:137] Memory required for data: 50332672
I0405 18:42:50.799160  1665 layer_factory.hpp:77] Creating layer data_bn
I0405 18:42:50.799239  1665 net.cpp:84] Creating Layer data_bn
I0405 18:42:50.799302  1665 net.cpp:406] data_bn <- data
I0405 18:42:50.799408  1665 net.cpp:380] data_bn -> data_bn
I0405 18:42:50.799652  1665 net.cpp:122] Setting up data_bn
I0405 18:42:50.799777  1665 net.cpp:129] Top shape: 256 3 128 128 (12582912)
I0405 18:42:50.799839  1665 net.cpp:137] Memory required for data: 100664320
I0405 18:42:50.799914  1665 layer_factory.hpp:77] Creating layer data_scale
I0405 18:42:50.799981  1665 net.cpp:84] Creating Layer data_scale
I0405 18:42:50.800060  1665 net.cpp:406] data_scale <- data_bn
I0405 18:42:50.800122  1665 net.cpp:367] data_scale -> data_bn (in-place)
I0405 18:42:50.804517  1665 layer_factory.hpp:77] Creating layer data_scale
I0405 18:42:50.804811  1665 net.cpp:122] Setting up data_scale
I0405 18:42:50.804903  1665 net.cpp:129] Top shape: 256 3 128 128 (12582912)
I0405 18:42:50.804957  1665 net.cpp:137] Memory required for data: 150995968
I0405 18:42:50.805016  1665 layer_factory.hpp:77] Creating layer conv1
I0405 18:42:50.805078  1665 net.cpp:84] Creating Layer conv1
I0405 18:42:50.805137  1665 net.cpp:406] conv1 <- data_bn
I0405 18:42:50.805192  1665 net.cpp:380] conv1 -> conv1
I0405 18:42:50.805474  1665 net.cpp:122] Setting up conv1
I0405 18:42:50.805534  1665 net.cpp:129] Top shape: 256 64 64 64 (67108864)
I0405 18:42:50.805586  1665 net.cpp:137] Memory required for data: 419431424
I0405 18:42:50.805640  1665 layer_factory.hpp:77] Creating layer conv1_bn
I0405 18:42:50.805696  1665 net.cpp:84] Creating Layer conv1_bn
I0405 18:42:50.805773  1665 net.cpp:406] conv1_bn <- conv1
I0405 18:42:50.805824  1665 net.cpp:367] conv1_bn -> conv1 (in-place)
I0405 18:42:50.805999  1665 net.cpp:122] Setting up conv1_bn
I0405 18:42:50.806066  1665 net.cpp:129] Top shape: 256 64 64 64 (67108864)
I0405 18:42:50.806118  1665 net.cpp:137] Memory required for data: 687866880
I0405 18:42:50.806183  1665 layer_factory.hpp:77] Creating layer conv1_scale
I0405 18:42:50.806242  1665 net.cpp:84] Creating Layer conv1_scale
I0405 18:42:50.806295  1665 net.cpp:406] conv1_scale <- conv1
I0405 18:42:50.806352  1665 net.cpp:367] conv1_scale -> conv1 (in-place)
I0405 18:42:50.806442  1665 layer_factory.hpp:77] Creating layer conv1_scale
I0405 18:42:50.806573  1665 net.cpp:122] Setting up conv1_scale
I0405 18:42:50.806645  1665 net.cpp:129] Top shape: 256 64 64 64 (67108864)
I0405 18:42:50.806700  1665 net.cpp:137] Memory required for data: 956302336
I0405 18:42:50.806763  1665 layer_factory.hpp:77] Creating layer conv1_relu
I0405 18:42:50.806814  1665 net.cpp:84] Creating Layer conv1_relu
I0405 18:42:50.806862  1665 net.cpp:406] conv1_relu <- conv1
I0405 18:42:50.806908  1665 net.cpp:367] conv1_relu -> conv1 (in-place)
I0405 18:42:50.806958  1665 net.cpp:122] Setting up conv1_relu
I0405 18:42:50.807008  1665 net.cpp:129] Top shape: 256 64 64 64 (67108864)
I0405 18:42:50.807055  1665 net.cpp:137] Memory required for data: 1224737792
I0405 18:42:50.807101  1665 layer_factory.hpp:77] Creating layer conv1_pool
I0405 18:42:50.807149  1665 net.cpp:84] Creating Layer conv1_pool
I0405 18:42:50.807196  1665 net.cpp:406] conv1_pool <- conv1
I0405 18:42:50.807260  1665 net.cpp:380] conv1_pool -> conv1_pool
I0405 18:42:50.807328  1665 net.cpp:122] Setting up conv1_pool
I0405 18:42:50.807379  1665 net.cpp:129] Top shape: 256 64 32 32 (16777216)
I0405 18:42:50.807425  1665 net.cpp:137] Memory required for data: 1291846656
I0405 18:42:50.807469  1665 layer_factory.hpp:77] Creating layer conv1_pool_conv1_pool_0_split
I0405 18:42:50.807518  1665 net.cpp:84] Creating Layer conv1_pool_conv1_pool_0_split
I0405 18:42:50.807574  1665 net.cpp:406] conv1_pool_conv1_pool_0_split <- conv1_pool
I0405 18:42:50.807633  1665 net.cpp:380] conv1_pool_conv1_pool_0_split -> conv1_pool_conv1_pool_0_split_0
I0405 18:42:50.807682  1665 net.cpp:380] conv1_pool_conv1_pool_0_split -> conv1_pool_conv1_pool_0_split_1
I0405 18:42:50.807780  1665 net.cpp:122] Setting up conv1_pool_conv1_pool_0_split
I0405 18:42:50.807838  1665 net.cpp:129] Top shape: 256 64 32 32 (16777216)
I0405 18:42:50.807893  1665 net.cpp:129] Top shape: 256 64 32 32 (16777216)
I0405 18:42:50.807942  1665 net.cpp:137] Memory required for data: 1426064384
I0405 18:42:50.807992  1665 layer_factory.hpp:77] Creating layer layer_64_1_conv1
I0405 18:42:50.808046  1665 net.cpp:84] Creating Layer layer_64_1_conv1
I0405 18:42:50.808099  1665 net.cpp:406] layer_64_1_conv1 <- conv1_pool_conv1_pool_0_split_0
I0405 18:42:50.808151  1665 net.cpp:380] layer_64_1_conv1 -> layer_64_1_conv1
I0405 18:42:50.808593  1665 net.cpp:122] Setting up layer_64_1_conv1
I0405 18:42:50.808676  1665 net.cpp:129] Top shape: 256 64 32 32 (16777216)
I0405 18:42:50.808754  1665 net.cpp:137] Memory required for data: 1493173248
I0405 18:42:50.808806  1665 layer_factory.hpp:77] Creating layer layer_64_1_bn2
I0405 18:42:50.808859  1665 net.cpp:84] Creating Layer layer_64_1_bn2
I0405 18:42:50.808913  1665 net.cpp:406] layer_64_1_bn2 <- layer_64_1_conv1
I0405 18:42:50.808969  1665 net.cpp:367] layer_64_1_bn2 -> layer_64_1_conv1 (in-place)
I0405 18:42:50.809136  1665 net.cpp:122] Setting up layer_64_1_bn2
I0405 18:42:50.809204  1665 net.cpp:129] Top shape: 256 64 32 32 (16777216)
I0405 18:42:50.809255  1665 net.cpp:137] Memory required for data: 1560282112
I0405 18:42:50.809309  1665 layer_factory.hpp:77] Creating layer layer_64_1_scale2
I0405 18:42:50.809372  1665 net.cpp:84] Creating Layer layer_64_1_scale2
I0405 18:42:50.809424  1665 net.cpp:406] layer_64_1_scale2 <- layer_64_1_conv1
I0405 18:42:50.809475  1665 net.cpp:367] layer_64_1_scale2 -> layer_64_1_conv1 (in-place)
I0405 18:42:50.809551  1665 layer_factory.hpp:77] Creating layer layer_64_1_scale2
I0405 18:42:50.809674  1665 net.cpp:122] Setting up layer_64_1_scale2
I0405 18:42:50.809742  1665 net.cpp:129] Top shape: 256 64 32 32 (16777216)
I0405 18:42:50.809798  1665 net.cpp:137] Memory required for data: 1627390976
I0405 18:42:50.809851  1665 layer_factory.hpp:77] Creating layer layer_64_1_relu2
I0405 18:42:50.809903  1665 net.cpp:84] Creating Layer layer_64_1_relu2
I0405 18:42:50.809954  1665 net.cpp:406] layer_64_1_relu2 <- layer_64_1_conv1
I0405 18:42:50.810010  1665 net.cpp:367] layer_64_1_relu2 -> layer_64_1_conv1 (in-place)
I0405 18:42:50.810065  1665 net.cpp:122] Setting up layer_64_1_relu2
I0405 18:42:50.810120  1665 net.cpp:129] Top shape: 256 64 32 32 (16777216)
I0405 18:42:50.810173  1665 net.cpp:137] Memory required for data: 1694499840
I0405 18:42:50.810230  1665 layer_factory.hpp:77] Creating layer layer_64_1_conv2
I0405 18:42:50.810283  1665 net.cpp:84] Creating Layer layer_64_1_conv2
I0405 18:42:50.810334  1665 net.cpp:406] layer_64_1_conv2 <- layer_64_1_conv1
I0405 18:42:50.810390  1665 net.cpp:380] layer_64_1_conv2 -> layer_64_1_conv2
I0405 18:42:50.810847  1665 net.cpp:122] Setting up layer_64_1_conv2
I0405 18:42:50.810925  1665 net.cpp:129] Top shape: 256 64 32 32 (16777216)
I0405 18:42:50.810973  1665 net.cpp:137] Memory required for data: 1761608704
I0405 18:42:50.811022  1665 layer_factory.hpp:77] Creating layer layer_64_1_sum
I0405 18:42:50.811072  1665 net.cpp:84] Creating Layer layer_64_1_sum
I0405 18:42:50.811121  1665 net.cpp:406] layer_64_1_sum <- layer_64_1_conv2
I0405 18:42:50.811168  1665 net.cpp:406] layer_64_1_sum <- conv1_pool_conv1_pool_0_split_1
I0405 18:42:50.811219  1665 net.cpp:380] layer_64_1_sum -> layer_64_1_sum
I0405 18:42:50.811276  1665 net.cpp:122] Setting up layer_64_1_sum
I0405 18:42:50.811326  1665 net.cpp:129] Top shape: 256 64 32 32 (16777216)
I0405 18:42:50.811375  1665 net.cpp:137] Memory required for data: 1828717568
I0405 18:42:50.811421  1665 layer_factory.hpp:77] Creating layer layer_128_1_bn1
I0405 18:42:50.811470  1665 net.cpp:84] Creating Layer layer_128_1_bn1
I0405 18:42:50.811527  1665 net.cpp:406] layer_128_1_bn1 <- layer_64_1_sum
I0405 18:42:50.811574  1665 net.cpp:380] layer_128_1_bn1 -> layer_128_1_bn1
I0405 18:42:50.811762  1665 net.cpp:122] Setting up layer_128_1_bn1
I0405 18:42:50.811825  1665 net.cpp:129] Top shape: 256 64 32 32 (16777216)
I0405 18:42:50.811882  1665 net.cpp:137] Memory required for data: 1895826432
I0405 18:42:50.811933  1665 layer_factory.hpp:77] Creating layer layer_128_1_scale1
I0405 18:42:50.811985  1665 net.cpp:84] Creating Layer layer_128_1_scale1
I0405 18:42:50.812032  1665 net.cpp:406] layer_128_1_scale1 <- layer_128_1_bn1
I0405 18:42:50.812080  1665 net.cpp:367] layer_128_1_scale1 -> layer_128_1_bn1 (in-place)
I0405 18:42:50.812152  1665 layer_factory.hpp:77] Creating layer layer_128_1_scale1
I0405 18:42:50.812273  1665 net.cpp:122] Setting up layer_128_1_scale1
I0405 18:42:50.812337  1665 net.cpp:129] Top shape: 256 64 32 32 (16777216)
I0405 18:42:50.812386  1665 net.cpp:137] Memory required for data: 1962935296
I0405 18:42:50.812434  1665 layer_factory.hpp:77] Creating layer layer_128_1_relu1
I0405 18:42:50.812485  1665 net.cpp:84] Creating Layer layer_128_1_relu1
I0405 18:42:50.812534  1665 net.cpp:406] layer_128_1_relu1 <- layer_128_1_bn1
I0405 18:42:50.812580  1665 net.cpp:367] layer_128_1_relu1 -> layer_128_1_bn1 (in-place)
I0405 18:42:50.812651  1665 net.cpp:122] Setting up layer_128_1_relu1
I0405 18:42:50.812701  1665 net.cpp:129] Top shape: 256 64 32 32 (16777216)
I0405 18:42:50.812775  1665 net.cpp:137] Memory required for data: 2030044160
I0405 18:42:50.812829  1665 layer_factory.hpp:77] Creating layer layer_128_1_bn1_layer_128_1_relu1_0_split
I0405 18:42:50.812885  1665 net.cpp:84] Creating Layer layer_128_1_bn1_layer_128_1_relu1_0_split
I0405 18:42:50.812945  1665 net.cpp:406] layer_128_1_bn1_layer_128_1_relu1_0_split <- layer_128_1_bn1
I0405 18:42:50.813004  1665 net.cpp:380] layer_128_1_bn1_layer_128_1_relu1_0_split -> layer_128_1_bn1_layer_128_1_relu1_0_split_0
I0405 18:42:50.813060  1665 net.cpp:380] layer_128_1_bn1_layer_128_1_relu1_0_split -> layer_128_1_bn1_layer_128_1_relu1_0_split_1
I0405 18:42:50.813138  1665 net.cpp:122] Setting up layer_128_1_bn1_layer_128_1_relu1_0_split
I0405 18:42:50.813196  1665 net.cpp:129] Top shape: 256 64 32 32 (16777216)
I0405 18:42:50.813253  1665 net.cpp:129] Top shape: 256 64 32 32 (16777216)
I0405 18:42:50.813304  1665 net.cpp:137] Memory required for data: 2164261888
I0405 18:42:50.813355  1665 layer_factory.hpp:77] Creating layer layer_128_1_conv1
I0405 18:42:50.813416  1665 net.cpp:84] Creating Layer layer_128_1_conv1
I0405 18:42:50.813467  1665 net.cpp:406] layer_128_1_conv1 <- layer_128_1_bn1_layer_128_1_relu1_0_split_0
I0405 18:42:50.813519  1665 net.cpp:380] layer_128_1_conv1 -> layer_128_1_conv1
I0405 18:42:50.814270  1665 net.cpp:122] Setting up layer_128_1_conv1
I0405 18:42:50.814357  1665 net.cpp:129] Top shape: 256 128 16 16 (8388608)
I0405 18:42:50.814424  1665 net.cpp:137] Memory required for data: 2197816320
I0405 18:42:50.814477  1665 layer_factory.hpp:77] Creating layer layer_128_1_bn2
I0405 18:42:50.814543  1665 net.cpp:84] Creating Layer layer_128_1_bn2
I0405 18:42:50.814592  1665 net.cpp:406] layer_128_1_bn2 <- layer_128_1_conv1
I0405 18:42:50.814644  1665 net.cpp:367] layer_128_1_bn2 -> layer_128_1_conv1 (in-place)
I0405 18:42:50.814828  1665 net.cpp:122] Setting up layer_128_1_bn2
I0405 18:42:50.814891  1665 net.cpp:129] Top shape: 256 128 16 16 (8388608)
I0405 18:42:50.814944  1665 net.cpp:137] Memory required for data: 2231370752
I0405 18:42:50.815002  1665 layer_factory.hpp:77] Creating layer layer_128_1_scale2
I0405 18:42:50.815058  1665 net.cpp:84] Creating Layer layer_128_1_scale2
I0405 18:42:50.815244  1665 net.cpp:406] layer_128_1_scale2 <- layer_128_1_conv1
I0405 18:42:50.815302  1665 net.cpp:367] layer_128_1_scale2 -> layer_128_1_conv1 (in-place)
I0405 18:42:50.815372  1665 layer_factory.hpp:77] Creating layer layer_128_1_scale2
I0405 18:42:50.815495  1665 net.cpp:122] Setting up layer_128_1_scale2
I0405 18:42:50.815558  1665 net.cpp:129] Top shape: 256 128 16 16 (8388608)
I0405 18:42:50.815623  1665 net.cpp:137] Memory required for data: 2264925184
I0405 18:42:50.815676  1665 layer_factory.hpp:77] Creating layer layer_128_1_relu2
I0405 18:42:50.815749  1665 net.cpp:84] Creating Layer layer_128_1_relu2
I0405 18:42:50.815796  1665 net.cpp:406] layer_128_1_relu2 <- layer_128_1_conv1
I0405 18:42:50.815843  1665 net.cpp:367] layer_128_1_relu2 -> layer_128_1_conv1 (in-place)
I0405 18:42:50.815893  1665 net.cpp:122] Setting up layer_128_1_relu2
I0405 18:42:50.815950  1665 net.cpp:129] Top shape: 256 128 16 16 (8388608)
I0405 18:42:50.816009  1665 net.cpp:137] Memory required for data: 2298479616
I0405 18:42:50.816051  1665 layer_factory.hpp:77] Creating layer layer_128_1_conv2
I0405 18:42:50.816099  1665 net.cpp:84] Creating Layer layer_128_1_conv2
I0405 18:42:50.816148  1665 net.cpp:406] layer_128_1_conv2 <- layer_128_1_conv1
I0405 18:42:50.816195  1665 net.cpp:380] layer_128_1_conv2 -> layer_128_1_conv2
I0405 18:42:50.817534  1665 net.cpp:122] Setting up layer_128_1_conv2
I0405 18:42:50.817620  1665 net.cpp:129] Top shape: 256 128 16 16 (8388608)
I0405 18:42:50.817672  1665 net.cpp:137] Memory required for data: 2332034048
I0405 18:42:50.817739  1665 layer_factory.hpp:77] Creating layer layer_128_1_conv_expand
I0405 18:42:50.817816  1665 net.cpp:84] Creating Layer layer_128_1_conv_expand
I0405 18:42:50.817874  1665 net.cpp:406] layer_128_1_conv_expand <- layer_128_1_bn1_layer_128_1_relu1_0_split_1
I0405 18:42:50.817931  1665 net.cpp:380] layer_128_1_conv_expand -> layer_128_1_conv_expand
I0405 18:42:50.818154  1665 net.cpp:122] Setting up layer_128_1_conv_expand
I0405 18:42:50.818226  1665 net.cpp:129] Top shape: 256 128 16 16 (8388608)
I0405 18:42:50.818279  1665 net.cpp:137] Memory required for data: 2365588480
I0405 18:42:50.818333  1665 layer_factory.hpp:77] Creating layer layer_128_1_sum
I0405 18:42:50.818387  1665 net.cpp:84] Creating Layer layer_128_1_sum
I0405 18:42:50.818439  1665 net.cpp:406] layer_128_1_sum <- layer_128_1_conv2
I0405 18:42:50.818501  1665 net.cpp:406] layer_128_1_sum <- layer_128_1_conv_expand
I0405 18:42:50.818554  1665 net.cpp:380] layer_128_1_sum -> layer_128_1_sum
I0405 18:42:50.818616  1665 net.cpp:122] Setting up layer_128_1_sum
I0405 18:42:50.818671  1665 net.cpp:129] Top shape: 256 128 16 16 (8388608)
I0405 18:42:50.818744  1665 net.cpp:137] Memory required for data: 2399142912
I0405 18:42:50.818820  1665 layer_factory.hpp:77] Creating layer layer_256_1_bn1
I0405 18:42:50.818881  1665 net.cpp:84] Creating Layer layer_256_1_bn1
I0405 18:42:50.818997  1665 net.cpp:406] layer_256_1_bn1 <- layer_128_1_sum
I0405 18:42:50.819095  1665 net.cpp:380] layer_256_1_bn1 -> layer_256_1_bn1
I0405 18:42:50.819289  1665 net.cpp:122] Setting up layer_256_1_bn1
I0405 18:42:50.819360  1665 net.cpp:129] Top shape: 256 128 16 16 (8388608)
I0405 18:42:50.819412  1665 net.cpp:137] Memory required for data: 2432697344
I0405 18:42:50.819483  1665 layer_factory.hpp:77] Creating layer layer_256_1_scale1
I0405 18:42:50.819548  1665 net.cpp:84] Creating Layer layer_256_1_scale1
I0405 18:42:50.819599  1665 net.cpp:406] layer_256_1_scale1 <- layer_256_1_bn1
I0405 18:42:50.819651  1665 net.cpp:367] layer_256_1_scale1 -> layer_256_1_bn1 (in-place)
I0405 18:42:50.819734  1665 layer_factory.hpp:77] Creating layer layer_256_1_scale1
I0405 18:42:50.819846  1665 net.cpp:122] Setting up layer_256_1_scale1
I0405 18:42:50.819960  1665 net.cpp:129] Top shape: 256 128 16 16 (8388608)
I0405 18:42:50.820019  1665 net.cpp:137] Memory required for data: 2466251776
I0405 18:42:50.820070  1665 layer_factory.hpp:77] Creating layer layer_256_1_relu1
I0405 18:42:50.820123  1665 net.cpp:84] Creating Layer layer_256_1_relu1
I0405 18:42:50.820174  1665 net.cpp:406] layer_256_1_relu1 <- layer_256_1_bn1
I0405 18:42:50.820230  1665 net.cpp:367] layer_256_1_relu1 -> layer_256_1_bn1 (in-place)
I0405 18:42:50.820286  1665 net.cpp:122] Setting up layer_256_1_relu1
I0405 18:42:50.820338  1665 net.cpp:129] Top shape: 256 128 16 16 (8388608)
I0405 18:42:50.820386  1665 net.cpp:137] Memory required for data: 2499806208
I0405 18:42:50.820436  1665 layer_factory.hpp:77] Creating layer layer_256_1_bn1_layer_256_1_relu1_0_split
I0405 18:42:50.820489  1665 net.cpp:84] Creating Layer layer_256_1_bn1_layer_256_1_relu1_0_split
I0405 18:42:50.820552  1665 net.cpp:406] layer_256_1_bn1_layer_256_1_relu1_0_split <- layer_256_1_bn1
I0405 18:42:50.820600  1665 net.cpp:380] layer_256_1_bn1_layer_256_1_relu1_0_split -> layer_256_1_bn1_layer_256_1_relu1_0_split_0
I0405 18:42:50.820650  1665 net.cpp:380] layer_256_1_bn1_layer_256_1_relu1_0_split -> layer_256_1_bn1_layer_256_1_relu1_0_split_1
I0405 18:42:50.820729  1665 net.cpp:122] Setting up layer_256_1_bn1_layer_256_1_relu1_0_split
I0405 18:42:50.820832  1665 net.cpp:129] Top shape: 256 128 16 16 (8388608)
I0405 18:42:50.820888  1665 net.cpp:129] Top shape: 256 128 16 16 (8388608)
I0405 18:42:50.820945  1665 net.cpp:137] Memory required for data: 2566915072
I0405 18:42:50.820998  1665 layer_factory.hpp:77] Creating layer layer_256_1_conv1
I0405 18:42:50.821063  1665 net.cpp:84] Creating Layer layer_256_1_conv1
I0405 18:42:50.821111  1665 net.cpp:406] layer_256_1_conv1 <- layer_256_1_bn1_layer_256_1_relu1_0_split_0
I0405 18:42:50.821169  1665 net.cpp:380] layer_256_1_conv1 -> layer_256_1_conv1
I0405 18:42:50.824740  1665 net.cpp:122] Setting up layer_256_1_conv1
I0405 18:42:50.824842  1665 net.cpp:129] Top shape: 256 256 8 8 (4194304)
I0405 18:42:50.824898  1665 net.cpp:137] Memory required for data: 2583692288
I0405 18:42:50.824950  1665 layer_factory.hpp:77] Creating layer layer_256_1_bn2
I0405 18:42:50.825006  1665 net.cpp:84] Creating Layer layer_256_1_bn2
I0405 18:42:50.825057  1665 net.cpp:406] layer_256_1_bn2 <- layer_256_1_conv1
I0405 18:42:50.825127  1665 net.cpp:367] layer_256_1_bn2 -> layer_256_1_conv1 (in-place)
I0405 18:42:50.825302  1665 net.cpp:122] Setting up layer_256_1_bn2
I0405 18:42:50.825369  1665 net.cpp:129] Top shape: 256 256 8 8 (4194304)
I0405 18:42:50.825417  1665 net.cpp:137] Memory required for data: 2600469504
I0405 18:42:50.825465  1665 layer_factory.hpp:77] Creating layer layer_256_1_scale2
I0405 18:42:50.825517  1665 net.cpp:84] Creating Layer layer_256_1_scale2
I0405 18:42:50.825567  1665 net.cpp:406] layer_256_1_scale2 <- layer_256_1_conv1
I0405 18:42:50.825625  1665 net.cpp:367] layer_256_1_scale2 -> layer_256_1_conv1 (in-place)
I0405 18:42:50.825700  1665 layer_factory.hpp:77] Creating layer layer_256_1_scale2
I0405 18:42:50.825821  1665 net.cpp:122] Setting up layer_256_1_scale2
I0405 18:42:50.825897  1665 net.cpp:129] Top shape: 256 256 8 8 (4194304)
I0405 18:42:50.825947  1665 net.cpp:137] Memory required for data: 2617246720
I0405 18:42:50.825995  1665 layer_factory.hpp:77] Creating layer layer_256_1_relu2
I0405 18:42:50.826045  1665 net.cpp:84] Creating Layer layer_256_1_relu2
I0405 18:42:50.826094  1665 net.cpp:406] layer_256_1_relu2 <- layer_256_1_conv1
I0405 18:42:50.826140  1665 net.cpp:367] layer_256_1_relu2 -> layer_256_1_conv1 (in-place)
I0405 18:42:50.826187  1665 net.cpp:122] Setting up layer_256_1_relu2
I0405 18:42:50.826234  1665 net.cpp:129] Top shape: 256 256 8 8 (4194304)
I0405 18:42:50.826282  1665 net.cpp:137] Memory required for data: 2634023936
I0405 18:42:50.826329  1665 layer_factory.hpp:77] Creating layer layer_256_1_conv2
I0405 18:42:50.826380  1665 net.cpp:84] Creating Layer layer_256_1_conv2
I0405 18:42:50.826436  1665 net.cpp:406] layer_256_1_conv2 <- layer_256_1_conv1
I0405 18:42:50.826483  1665 net.cpp:380] layer_256_1_conv2 -> layer_256_1_conv2
I0405 18:42:50.832113  1665 net.cpp:122] Setting up layer_256_1_conv2
I0405 18:42:50.832206  1665 net.cpp:129] Top shape: 256 256 8 8 (4194304)
I0405 18:42:50.832257  1665 net.cpp:137] Memory required for data: 2650801152
I0405 18:42:50.832315  1665 layer_factory.hpp:77] Creating layer layer_256_1_conv_expand
I0405 18:42:50.832363  1665 net.cpp:84] Creating Layer layer_256_1_conv_expand
I0405 18:42:50.832417  1665 net.cpp:406] layer_256_1_conv_expand <- layer_256_1_bn1_layer_256_1_relu1_0_split_1
I0405 18:42:50.832468  1665 net.cpp:380] layer_256_1_conv_expand -> layer_256_1_conv_expand
I0405 18:42:50.832921  1665 net.cpp:122] Setting up layer_256_1_conv_expand
I0405 18:42:50.833005  1665 net.cpp:129] Top shape: 256 256 8 8 (4194304)
I0405 18:42:50.833057  1665 net.cpp:137] Memory required for data: 2667578368
I0405 18:42:50.833106  1665 layer_factory.hpp:77] Creating layer layer_256_1_sum
I0405 18:42:50.833180  1665 net.cpp:84] Creating Layer layer_256_1_sum
I0405 18:42:50.833245  1665 net.cpp:406] layer_256_1_sum <- layer_256_1_conv2
I0405 18:42:50.833304  1665 net.cpp:406] layer_256_1_sum <- layer_256_1_conv_expand
I0405 18:42:50.833364  1665 net.cpp:380] layer_256_1_sum -> layer_256_1_sum
I0405 18:42:50.833423  1665 net.cpp:122] Setting up layer_256_1_sum
I0405 18:42:50.833477  1665 net.cpp:129] Top shape: 256 256 8 8 (4194304)
I0405 18:42:50.833523  1665 net.cpp:137] Memory required for data: 2684355584
I0405 18:42:50.833570  1665 layer_factory.hpp:77] Creating layer layer_512_1_bn1
I0405 18:42:50.833617  1665 net.cpp:84] Creating Layer layer_512_1_bn1
I0405 18:42:50.833667  1665 net.cpp:406] layer_512_1_bn1 <- layer_256_1_sum
I0405 18:42:50.833707  1665 net.cpp:380] layer_512_1_bn1 -> layer_512_1_bn1
I0405 18:42:50.833885  1665 net.cpp:122] Setting up layer_512_1_bn1
I0405 18:42:50.833952  1665 net.cpp:129] Top shape: 256 256 8 8 (4194304)
I0405 18:42:50.833998  1665 net.cpp:137] Memory required for data: 2701132800
I0405 18:42:50.834058  1665 layer_factory.hpp:77] Creating layer layer_512_1_scale1
I0405 18:42:50.834110  1665 net.cpp:84] Creating Layer layer_512_1_scale1
I0405 18:42:50.834157  1665 net.cpp:406] layer_512_1_scale1 <- layer_512_1_bn1
I0405 18:42:50.834203  1665 net.cpp:367] layer_512_1_scale1 -> layer_512_1_bn1 (in-place)
I0405 18:42:50.834277  1665 layer_factory.hpp:77] Creating layer layer_512_1_scale1
I0405 18:42:50.834399  1665 net.cpp:122] Setting up layer_512_1_scale1
I0405 18:42:50.834450  1665 net.cpp:129] Top shape: 256 256 8 8 (4194304)
I0405 18:42:50.834498  1665 net.cpp:137] Memory required for data: 2717910016
I0405 18:42:50.834547  1665 layer_factory.hpp:77] Creating layer layer_512_1_relu1
I0405 18:42:50.834597  1665 net.cpp:84] Creating Layer layer_512_1_relu1
I0405 18:42:50.834646  1665 net.cpp:406] layer_512_1_relu1 <- layer_512_1_bn1
I0405 18:42:50.834694  1665 net.cpp:367] layer_512_1_relu1 -> layer_512_1_bn1 (in-place)
I0405 18:42:50.834744  1665 net.cpp:122] Setting up layer_512_1_relu1
I0405 18:42:50.834795  1665 net.cpp:129] Top shape: 256 256 8 8 (4194304)
I0405 18:42:50.834843  1665 net.cpp:137] Memory required for data: 2734687232
I0405 18:42:50.834890  1665 layer_factory.hpp:77] Creating layer layer_512_1_bn1_layer_512_1_relu1_0_split
I0405 18:42:50.834939  1665 net.cpp:84] Creating Layer layer_512_1_bn1_layer_512_1_relu1_0_split
I0405 18:42:50.834988  1665 net.cpp:406] layer_512_1_bn1_layer_512_1_relu1_0_split <- layer_512_1_bn1
I0405 18:42:50.835036  1665 net.cpp:380] layer_512_1_bn1_layer_512_1_relu1_0_split -> layer_512_1_bn1_layer_512_1_relu1_0_split_0
I0405 18:42:50.835086  1665 net.cpp:380] layer_512_1_bn1_layer_512_1_relu1_0_split -> layer_512_1_bn1_layer_512_1_relu1_0_split_1
I0405 18:42:50.835158  1665 net.cpp:122] Setting up layer_512_1_bn1_layer_512_1_relu1_0_split
I0405 18:42:50.835213  1665 net.cpp:129] Top shape: 256 256 8 8 (4194304)
I0405 18:42:50.835259  1665 net.cpp:129] Top shape: 256 256 8 8 (4194304)
I0405 18:42:50.835306  1665 net.cpp:137] Memory required for data: 2768241664
I0405 18:42:50.835351  1665 layer_factory.hpp:77] Creating layer layer_512_1_conv1
I0405 18:42:50.835400  1665 net.cpp:84] Creating Layer layer_512_1_conv1
I0405 18:42:50.835459  1665 net.cpp:406] layer_512_1_conv1 <- layer_512_1_bn1_layer_512_1_relu1_0_split_0
I0405 18:42:50.835518  1665 net.cpp:380] layer_512_1_conv1 -> layer_512_1_conv1
I0405 18:42:50.846299  1665 net.cpp:122] Setting up layer_512_1_conv1
I0405 18:42:50.846411  1665 net.cpp:129] Top shape: 256 512 4 4 (2097152)
I0405 18:42:50.846485  1665 net.cpp:137] Memory required for data: 2776630272
I0405 18:42:50.846541  1665 layer_factory.hpp:77] Creating layer layer_512_1_bn2
I0405 18:42:50.846599  1665 net.cpp:84] Creating Layer layer_512_1_bn2
I0405 18:42:50.846654  1665 net.cpp:406] layer_512_1_bn2 <- layer_512_1_conv1
I0405 18:42:50.846711  1665 net.cpp:367] layer_512_1_bn2 -> layer_512_1_conv1 (in-place)
I0405 18:42:50.846922  1665 net.cpp:122] Setting up layer_512_1_bn2
I0405 18:42:50.846993  1665 net.cpp:129] Top shape: 256 512 4 4 (2097152)
I0405 18:42:50.847045  1665 net.cpp:137] Memory required for data: 2785018880
I0405 18:42:50.847101  1665 layer_factory.hpp:77] Creating layer layer_512_1_scale2
I0405 18:42:50.847157  1665 net.cpp:84] Creating Layer layer_512_1_scale2
I0405 18:42:50.847213  1665 net.cpp:406] layer_512_1_scale2 <- layer_512_1_conv1
I0405 18:42:50.847265  1665 net.cpp:367] layer_512_1_scale2 -> layer_512_1_conv1 (in-place)
I0405 18:42:50.847334  1665 layer_factory.hpp:77] Creating layer layer_512_1_scale2
I0405 18:42:50.847455  1665 net.cpp:122] Setting up layer_512_1_scale2
I0405 18:42:50.847523  1665 net.cpp:129] Top shape: 256 512 4 4 (2097152)
I0405 18:42:50.847585  1665 net.cpp:137] Memory required for data: 2793407488
I0405 18:42:50.847640  1665 layer_factory.hpp:77] Creating layer layer_512_1_relu2
I0405 18:42:50.847700  1665 net.cpp:84] Creating Layer layer_512_1_relu2
I0405 18:42:50.847764  1665 net.cpp:406] layer_512_1_relu2 <- layer_512_1_conv1
I0405 18:42:50.847818  1665 net.cpp:367] layer_512_1_relu2 -> layer_512_1_conv1 (in-place)
I0405 18:42:50.847874  1665 net.cpp:122] Setting up layer_512_1_relu2
I0405 18:42:50.847932  1665 net.cpp:129] Top shape: 256 512 4 4 (2097152)
I0405 18:42:50.847991  1665 net.cpp:137] Memory required for data: 2801796096
I0405 18:42:50.848054  1665 layer_factory.hpp:77] Creating layer layer_512_1_conv2
I0405 18:42:50.848107  1665 net.cpp:84] Creating Layer layer_512_1_conv2
I0405 18:42:50.848158  1665 net.cpp:406] layer_512_1_conv2 <- layer_512_1_conv1
I0405 18:42:50.848233  1665 net.cpp:380] layer_512_1_conv2 -> layer_512_1_conv2
I0405 18:42:50.869539  1665 net.cpp:122] Setting up layer_512_1_conv2
I0405 18:42:50.869642  1665 net.cpp:129] Top shape: 256 512 4 4 (2097152)
I0405 18:42:50.869696  1665 net.cpp:137] Memory required for data: 2810184704
I0405 18:42:50.869753  1665 layer_factory.hpp:77] Creating layer layer_512_1_conv_expand
I0405 18:42:50.869810  1665 net.cpp:84] Creating Layer layer_512_1_conv_expand
I0405 18:42:50.869863  1665 net.cpp:406] layer_512_1_conv_expand <- layer_512_1_bn1_layer_512_1_relu1_0_split_1
I0405 18:42:50.869917  1665 net.cpp:380] layer_512_1_conv_expand -> layer_512_1_conv_expand
I0405 18:42:50.871125  1665 net.cpp:122] Setting up layer_512_1_conv_expand
I0405 18:42:50.871212  1665 net.cpp:129] Top shape: 256 512 4 4 (2097152)
I0405 18:42:50.871265  1665 net.cpp:137] Memory required for data: 2818573312
I0405 18:42:50.871320  1665 layer_factory.hpp:77] Creating layer layer_512_1_sum
I0405 18:42:50.871373  1665 net.cpp:84] Creating Layer layer_512_1_sum
I0405 18:42:50.871426  1665 net.cpp:406] layer_512_1_sum <- layer_512_1_conv2
I0405 18:42:50.871479  1665 net.cpp:406] layer_512_1_sum <- layer_512_1_conv_expand
I0405 18:42:50.871533  1665 net.cpp:380] layer_512_1_sum -> layer_512_1_sum
I0405 18:42:50.871598  1665 net.cpp:122] Setting up layer_512_1_sum
I0405 18:42:50.871665  1665 net.cpp:129] Top shape: 256 512 4 4 (2097152)
I0405 18:42:50.871726  1665 net.cpp:137] Memory required for data: 2826961920
I0405 18:42:50.871780  1665 layer_factory.hpp:77] Creating layer last_bn
I0405 18:42:50.871832  1665 net.cpp:84] Creating Layer last_bn
I0405 18:42:50.871896  1665 net.cpp:406] last_bn <- layer_512_1_sum
I0405 18:42:50.871948  1665 net.cpp:367] last_bn -> layer_512_1_sum (in-place)
I0405 18:42:50.872115  1665 net.cpp:122] Setting up last_bn
I0405 18:42:50.872179  1665 net.cpp:129] Top shape: 256 512 4 4 (2097152)
I0405 18:42:50.872242  1665 net.cpp:137] Memory required for data: 2835350528
I0405 18:42:50.872294  1665 layer_factory.hpp:77] Creating layer last_scale
I0405 18:42:50.872349  1665 net.cpp:84] Creating Layer last_scale
I0405 18:42:50.872400  1665 net.cpp:406] last_scale <- layer_512_1_sum
I0405 18:42:50.872452  1665 net.cpp:367] last_scale -> layer_512_1_sum (in-place)
I0405 18:42:50.872520  1665 layer_factory.hpp:77] Creating layer last_scale
I0405 18:42:50.872630  1665 net.cpp:122] Setting up last_scale
I0405 18:42:50.872696  1665 net.cpp:129] Top shape: 256 512 4 4 (2097152)
I0405 18:42:50.872754  1665 net.cpp:137] Memory required for data: 2843739136
I0405 18:42:50.872815  1665 layer_factory.hpp:77] Creating layer last_relu
I0405 18:42:50.872869  1665 net.cpp:84] Creating Layer last_relu
I0405 18:42:50.872923  1665 net.cpp:406] last_relu <- layer_512_1_sum
I0405 18:42:50.872993  1665 net.cpp:367] last_relu -> layer_512_1_sum (in-place)
I0405 18:42:50.873046  1665 net.cpp:122] Setting up last_relu
I0405 18:42:50.873100  1665 net.cpp:129] Top shape: 256 512 4 4 (2097152)
I0405 18:42:50.873153  1665 net.cpp:137] Memory required for data: 2852127744
I0405 18:42:50.873205  1665 layer_factory.hpp:77] Creating layer global_pool
I0405 18:42:50.873268  1665 net.cpp:84] Creating Layer global_pool
I0405 18:42:50.873333  1665 net.cpp:406] global_pool <- layer_512_1_sum
I0405 18:42:50.873389  1665 net.cpp:380] global_pool -> global_pool
I0405 18:42:50.873450  1665 net.cpp:122] Setting up global_pool
I0405 18:42:50.873507  1665 net.cpp:129] Top shape: 256 512 1 1 (131072)
I0405 18:42:50.873561  1665 net.cpp:137] Memory required for data: 2852652032
I0405 18:42:50.873612  1665 layer_factory.hpp:77] Creating layer score
I0405 18:42:50.873667  1665 net.cpp:84] Creating Layer score
I0405 18:42:50.873720  1665 net.cpp:406] score <- global_pool
I0405 18:42:50.873769  1665 net.cpp:380] score -> score
I0405 18:42:50.875062  1665 net.cpp:122] Setting up score
I0405 18:42:50.875139  1665 net.cpp:129] Top shape: 256 1000 (256000)
I0405 18:42:50.875196  1665 net.cpp:137] Memory required for data: 2853676032
I0405 18:42:50.875273  1665 layer_factory.hpp:77] Creating layer loss
I0405 18:42:50.875341  1665 net.cpp:84] Creating Layer loss
I0405 18:42:50.875396  1665 net.cpp:406] loss <- score
I0405 18:42:50.875448  1665 net.cpp:406] loss <- label
I0405 18:42:50.875502  1665 net.cpp:380] loss -> loss
I0405 18:42:50.875564  1665 layer_factory.hpp:77] Creating layer loss
…
I0405 18:42:50.882144  1665 net.cpp:294] The NetState phase (1) differed from the phase (0) specified by a rule in layer data
I0405 18:42:50.882565  1665 net.cpp:51] Initializing net from parameters: 
name: "ResNet-10_CORe50_mid_CaffeNet"
state {
  phase: TEST
}
layer {
  name: "data"
  type: "ImageData"
  top: "data"
  top: "label"
  include {
    phase: TEST
  }
  transform_param {
    mirror: false
    crop_size: 128
  }
  image_data_param {
    source: "data/sII_cum/run0/test_filelist.txt"
    batch_size: 100
    shuffle: true
    root_folder: "data/core50_128x128/"
  }
}
layer {
  name: "data_bn"
  type: "BatchNorm"
  bottom: "data"
  top: "data_bn"
  param {
    lr_mult: 0
    decay_mult: 0
  }
  param {
    lr_mult: 0
    decay_mult: 0
  }
  param {
    lr_mult: 0
    decay_mult: 0
  }
}
layer {
  name: "data_scale"
  type: "Scale"
  bottom: "data_bn"
  top: "data_bn"
  param {
    lr_mult: 1
    decay_mult: 1
  }
  param {
    lr_mult: 2
    decay_mult: 1
  }
  scale_param {
    bias_term: true
  }
}
layer {
  name: "conv1"
  type: "Convolution"
  bottom: "data_bn"
  top: "conv1"
  param {
    lr_mult: 1
    decay_mult: 1
  }
  param {
    lr_mult: 2
    decay_mult: 1
  }
  convolution_param {
    num_output: 64
    pad: 3
    kernel_size: 7
    stride: 2
    weight_filler {
      type: "msra"
      variance_norm: FAN_OUT
    }
    bias_filler {
      type: "constant"
      value: 0
    }
  }
}
layer {
  name: "conv1_bn"
  type: "BatchNorm"
  bottom: "conv1"
  top: "conv1"
  param {
    lr_mult: 0
    decay_mult: 0
  }
  param {
    lr_mult: 0
    decay_mult: 0
  }
  param {
    lr_mult: 0
    decay_mult: 0
  }
}
layer {
  name: "conv1_scale"
  type: "Scale"
  bottom: "conv1"
  top: "conv1"
  param {
    lr_mult: 1
    decay_mult: 1
  }
  param {
    lr_mult: 2
    decay_mult: 1
  }
  scale_param {
    bias_term: true
  }
}
layer {
  name: "conv1_relu"
  type: "ReLU"
  bottom: "conv1"
  top: "conv1"
}
layer {
  name: "conv1_pool"
  type: "Pooling"
  bottom: "conv1"
  top: "conv1_pool"
  pooling_param {
    kernel_size: 3
    stride: 2
  }
}
layer {
  name: "layer_64_1_conv1"
  type: "Convolution"
  bottom: "conv1_pool"
  top: "layer_64_1_conv1"
  param {
    lr_mult: 1
    decay_mult: 1
  }
  convolution_param {
    num_output: 64
    bias_term: false
    pad: 1
    kernel_size: 3
    stride: 1
    weight_filler {
      type: "msra"
    }
    bias_filler {
      type: "constant"
      value: 0
    }
  }
}
layer {
  name: "layer_64_1_bn2"
  type: "BatchNorm"
  bottom: "layer_64_1_conv1"
  top: "layer_64_1_conv1"
  param {
    lr_mult: 0
    decay_mult: 0
  }
  param {
    lr_mult: 0
    decay_mult: 0
  }
  param {
    lr_mult: 0
    decay_mult: 0
  }
}
layer {
  name: "layer_64_1_scale2"
  type: "Scale"
  bottom: "layer_64_1_conv1"
  top: "layer_64_1_conv1"
  param {
    lr_mult: 1
    decay_mult: 1
  }
  param {
    lr_mult: 2
    decay_mult: 1
  }
  scale_param {
    bias_term: true
  }
}
layer {
  name: "layer_64_1_relu2"
  type: "ReLU"
  bottom: "layer_64_1_conv1"
  top: "layer_64_1_conv1"
}
layer {
  name: "layer_64_1_conv2"
  type: "Convolution"
  bottom: "layer_64_1_conv1"
  top: "layer_64_1_conv2"
  param {
    lr_mult: 1
    decay_mult: 1
  }
  convolution_param {
    num_output: 64
    bias_term: false
    pad: 1
    kernel_size: 3
    stride: 1
    weight_filler {
      type: "msra"
    }
    bias_filler {
      type: "constant"
      value: 0
    }
  }
}
layer {
  name: "layer_64_1_sum"
  type: "Eltwise"
  bottom: "layer_64_1_conv2"
  bottom: "conv1_pool"
  top: "layer_64_1_sum"
}
layer {
  name: "layer_128_1_bn1"
  type: "BatchNorm"
  bottom: "layer_64_1_sum"
  top: "layer_128_1_bn1"
  param {
    lr_mult: 0
    decay_mult: 0
  }
  param {
    lr_mult: 0
    decay_mult: 0
  }
  param {
    lr_mult: 0
    decay_mult: 0
  }
}
layer {
  name: "layer_128_1_scale1"
  type: "Scale"
  bottom: "layer_128_1_bn1"
  top: "layer_128_1_bn1"
  param {
    lr_mult: 1
    decay_mult: 1
  }
  param {
    lr_mult: 2
    decay_mult: 1
  }
  scale_param {
    bias_term: true
  }
}
layer {
  name: "layer_128_1_relu1"
  type: "ReLU"
  bottom: "layer_128_1_bn1"
  top: "layer_128_1_bn1"
}
layer {
  name: "layer_128_1_conv1"
  type: "Convolution"
  bottom: "layer_128_1_bn1"
  top: "layer_128_1_conv1"
  param {
    lr_mult: 1
    decay_mult: 1
  }
  convolution_param {
    num_output: 128
    bias_term: false
    pad: 1
    kernel_size: 3
    stride: 2
    weight_filler {
      type: "msra"
    }
    bias_filler {
      type: "constant"
      value: 0
    }
  }
}
layer {
  name: "layer_128_1_bn2"
  type: "BatchNorm"
  bottom: "layer_128_1_conv1"
  top: "layer_128_1_conv1"
  param {
    lr_mult: 0
    decay_mult: 0
  }
  param {
    lr_mult: 0
    decay_mult: 0
  }
  param {
    lr_mult: 0
    decay_mult: 0
  }
}
layer {
  name: "layer_128_1_scale2"
  type: "Scale"
  bottom: "layer_128_1_conv1"
  top: "layer_128_1_conv1"
  param {
    lr_mult: 1
    decay_mult: 1
  }
  param {
    lr_mult: 2
    decay_mult: 1
  }
  scale_param {
    bias_term: true
  }
}
layer {
  name: "layer_128_1_relu2"
  type: "ReLU"
  bottom: "layer_128_1_conv1"
  top: "layer_128_1_conv1"
}
layer {
  name: "layer_128_1_conv2"
  type: "Convolution"
  bottom: "layer_128_1_conv1"
  top: "layer_128_1_conv2"
  param {
    lr_mult: 1
    decay_mult: 1
  }
  convolution_param {
    num_output: 128
    bias_term: false
    pad: 1
    kernel_size: 3
    stride: 1
    weight_filler {
      type: "msra"
    }
    bias_filler {
      type: "constant"
      value: 0
    }
  }
}
layer {
  name: "layer_128_1_conv_expand"
  type: "Convolution"
  bottom: "layer_128_1_bn1"
  top: "layer_128_1_conv_expand"
  param {
    lr_mult: 1
    decay_mult: 1
  }
  convolution_param {
    num_output: 128
    bias_term: false
    pad: 0
    kernel_size: 1
    stride: 2
    weight_filler {
      type: "msra"
    }
    bias_filler {
      type: "constant"
      value: 0
    }
  }
}
layer {
  name: "layer_128_1_sum"
  type: "Eltwise"
  bottom: "layer_128_1_conv2"
  bottom: "layer_128_1_conv_expand"
  top: "layer_128_1_sum"
}
layer {
  name: "layer_256_1_bn1"
  type: "BatchNorm"
  bottom: "layer_128_1_sum"
  top: "layer_256_1_bn1"
  param {
    lr_mult: 0
    decay_mult: 0
  }
  param {
    lr_mult: 0
    decay_mult: 0
  }
  param {
    lr_mult: 0
    decay_mult: 0
  }
}
layer {
  name: "layer_256_1_scale1"
  type: "Scale"
  bottom: "layer_256_1_bn1"
  top: "layer_256_1_bn1"
  param {
    lr_mult: 1
    decay_mult: 1
  }
  param {
    lr_mult: 2
    decay_mult: 1
  }
  scale_param {
    bias_term: true
  }
}
layer {
  name: "layer_256_1_relu1"
  type: "ReLU"
  bottom: "layer_256_1_bn1"
  top: "layer_256_1_bn1"
}
layer {
  name: "layer_256_1_conv1"
  type: "Convolution"
  bottom: "layer_256_1_bn1"
  top: "layer_256_1_conv1"
  param {
    lr_mult: 1
    decay_mult: 1
  }
  convolution_param {
    num_output: 256
    bias_term: false
    pad: 1
    kernel_size: 3
    stride: 2
    weight_filler {
      type: "msra"
    }
    bias_filler {
      type: "constant"
      value: 0
    }
  }
}
layer {
  name: "layer_256_1_bn2"
  type: "BatchNorm"
  bottom: "layer_256_1_conv1"
  top: "layer_256_1_conv1"
  param {
    lr_mult: 0
    decay_mult: 0
  }
  param {
    lr_mult: 0
    decay_mult: 0
  }
  param {
    lr_mult: 0
    decay_mult: 0
  }
}
layer {
  name: "layer_256_1_scale2"
  type: "Scale"
  bottom: "layer_256_1_conv1"
  top: "layer_256_1_conv1"
  param {
    lr_mult: 1
    decay_mult: 1
  }
  param {
    lr_mult: 2
    decay_mult: 1
  }
  scale_param {
    bias_term: true
  }
}
layer {
  name: "layer_256_1_relu2"
  type: "ReLU"
  bottom: "layer_256_1_conv1"
  top: "layer_256_1_conv1"
}
layer {
  name: "layer_256_1_conv2"
  type: "Convolution"
  bottom: "layer_256_1_conv1"
  top: "layer_256_1_conv2"
  param {
    lr_mult: 1
    decay_mult: 1
  }
  convolution_param {
    num_output: 256
    bias_term: false
    pad: 1
    kernel_size: 3
    stride: 1
    weight_filler {
      type: "msra"
    }
    bias_filler {
      type: "constant"
      value: 0
    }
  }
}
layer {
  name: "layer_256_1_conv_expand"
  type: "Convolution"
  bottom: "layer_256_1_bn1"
  top: "layer_256_1_conv_expand"
  param {
    lr_mult: 1
    decay_mult: 1
  }
  convolution_param {
    num_output: 256
    bias_term: false
    pad: 0
    kernel_size: 1
    stride: 2
    weight_filler {
      type: "msra"
    }
    bias_filler {
      type: "constant"
      value: 0
    }
  }
}
layer {
  name: "layer_256_1_sum"
  type: "Eltwise"
  bottom: "layer_256_1_conv2"
  bottom: "layer_256_1_conv_expand"
  top: "layer_256_1_sum"
}
layer {
  name: "layer_512_1_bn1"
  type: "BatchNorm"
  bottom: "layer_256_1_sum"
  top: "layer_512_1_bn1"
  param {
    lr_mult: 0
    decay_mult: 0
  }
  param {
    lr_mult: 0
    decay_mult: 0
  }
  param {
    lr_mult: 0
    decay_mult: 0
  }
}
layer {
  name: "layer_512_1_scale1"
  type: "Scale"
  bottom: "layer_512_1_bn1"
  top: "layer_512_1_bn1"
  param {
    lr_mult: 1
    decay_mult: 1
  }
  param {
    lr_mult: 2
    decay_mult: 1
  }
  scale_param {
    bias_term: true
  }
}
layer {
  name: "layer_512_1_relu1"
  type: "ReLU"
  bottom: "layer_512_1_bn1"
  top: "layer_512_1_bn1"
}
layer {
  name: "layer_512_1_conv1"
  type: "Convolution"
  bottom: "layer_512_1_bn1"
  top: "layer_512_1_conv1"
  param {
    lr_mult: 1
    decay_mult: 1
  }
  convolution_param {
    num_output: 512
    bias_term: false
    pad: 1
    kernel_size: 3
    stride: 2
    weight_filler {
      type: "msra"
    }
    bias_filler {
      type: "constant"
      value: 0
    }
  }
}
layer {
  name: "layer_512_1_bn2"
  type: "BatchNorm"
  bottom: "layer_512_1_conv1"
  top: "layer_512_1_conv1"
  param {
    lr_mult: 0
    decay_mult: 0
  }
  param {
    lr_mult: 0
    decay_mult: 0
  }
  param {
    lr_mult: 0
    decay_mult: 0
  }
}
layer {
  name: "layer_512_1_scale2"
  type: "Scale"
  bottom: "layer_512_1_conv1"
  top: "layer_512_1_conv1"
  param {
    lr_mult: 1
    decay_mult: 1
  }
  param {
    lr_mult: 2
    decay_mult: 1
  }
  scale_param {
    bias_term: true
  }
}
layer {
  name: "layer_512_1_relu2"
  type: "ReLU"
  bottom: "layer_512_1_conv1"
  top: "layer_512_1_conv1"
}
layer {
  name: "layer_512_1_conv2"
  type: "Convolution"
  bottom: "layer_512_1_conv1"
  top: "layer_512_1_conv2"
  param {
    lr_mult: 1
    decay_mult: 1
  }
  convolution_param {
    num_output: 512
    bias_term: false
    pad: 1
    kernel_size: 3
    stride: 1
    weight_filler {
      type: "msra"
    }
    bias_filler {
      type: "constant"
      value: 0
    }
  }
}
layer {
  name: "layer_512_1_conv_expand"
  type: "Convolution"
  bottom: "layer_512_1_bn1"
  top: "layer_512_1_conv_expand"
  param {
    lr_mult: 1
    decay_mult: 1
  }
  convolution_param {
    num_output: 512
    bias_term: false
    pad: 0
    kernel_size: 1
    stride: 2
    weight_filler {
      type: "msra"
    }
    bias_filler {
      type: "constant"
      value: 0
    }
  }
}
layer {
  name: "layer_512_1_sum"
  type: "Eltwise"
  bottom: "layer_512_1_conv2"
  bottom: "layer_512_1_conv_expand"
  top: "layer_512_1_sum"
}
layer {
  name: "last_bn"
  type: "BatchNorm"
  bottom: "layer_512_1_sum"
  top: "layer_512_1_sum"
  param {
    lr_mult: 0
    decay_mult: 0
  }
  param {
    lr_mult: 0
    decay_mult: 0
  }
  param {
    lr_mult: 0
    decay_mult: 0
  }
}
layer {
  name: "last_scale"
  type: "Scale"
  bottom: "layer_512_1_sum"
  top: "layer_512_1_sum"
  param {
    lr_mult: 1
    decay_mult: 1
  }
  param {
    lr_mult: 2
    decay_mult: 1
  }
  scale_param {
    bias_term: true
  }
}
layer {
  name: "last_relu"
  type: "ReLU"
  bottom: "layer_512_1_sum"
  top: "layer_512_1_sum"
}
layer {
  name: "global_pool"
  type: "Pooling"
  bottom: "layer_512_1_sum"
  top: "global_pool"
  pooling_param {
    pool: AVE
    global_pooling: true
  }
}
layer {
  name: "score"
  type: "InnerProduct"
  bottom: "global_pool"
  top: "score"
  param {
    lr_mult: 1
    decay_mult: 1
  }
  param {
    lr_mult: 2
    decay_mult: 1
  }
  inner_product_param {
    num_output: 1000
  }
}
layer {
  name: "loss"
  type: "SoftmaxWithLoss"
  bottom: "score"
  bottom: "label"
  top: "loss"
}
layer {
  name: "accuracy"
  type: "Accuracy"
  bottom: "score"
  bottom: "label"
  top: "accuracy"
  include {
    phase: TEST
  }
}
I0405 18:42:50.882856  1665 layer_factory.hpp:77] Creating layer data
I0405 18:42:50.882926  1665 net.cpp:84] Creating Layer data
I0405 18:42:50.882973  1665 net.cpp:380] data -> data
I0405 18:42:50.883020  1665 net.cpp:380] data -> label
I0405 18:42:50.883065  1665 image_data_layer.cpp:38] Opening file data/sII_cum/run0/test_filelist.txt
I0405 18:42:50.890069  1665 image_data_layer.cpp:53] Shuffling data
I0405 18:42:50.891185  1665 image_data_layer.cpp:63] A total of 44972 images.
I0405 18:42:50.891914  1665 image_data_layer.cpp:90] output data size: 100,3,128,128
I0405 18:42:50.937906  1665 net.cpp:122] Setting up data
I0405 18:42:50.938009  1665 net.cpp:129] Top shape: 100 3 128 128 (4915200)
I0405 18:42:50.938073  1665 net.cpp:129] Top shape: 100 (100)
I0405 18:42:50.938134  1665 net.cpp:137] Memory required for data: 19661200
I0405 18:42:50.938177  1665 layer_factory.hpp:77] Creating layer label_data_1_split
I0405 18:42:50.938246  1665 net.cpp:84] Creating Layer label_data_1_split
I0405 18:42:50.938299  1665 net.cpp:406] label_data_1_split <- label
I0405 18:42:50.938364  1665 net.cpp:380] label_data_1_split -> label_data_1_split_0
I0405 18:42:50.938424  1665 net.cpp:380] label_data_1_split -> label_data_1_split_1
I0405 18:42:50.938524  1665 net.cpp:122] Setting up label_data_1_split
I0405 18:42:50.938573  1665 net.cpp:129] Top shape: 100 (100)
I0405 18:42:50.938621  1665 net.cpp:129] Top shape: 100 (100)
I0405 18:42:50.938673  1665 net.cpp:137] Memory required for data: 19662000
I0405 18:42:50.938746  1665 layer_factory.hpp:77] Creating layer data_bn
I0405 18:42:50.938807  1665 net.cpp:84] Creating Layer data_bn
I0405 18:42:50.938858  1665 net.cpp:406] data_bn <- data
I0405 18:42:50.938910  1665 net.cpp:380] data_bn -> data_bn
I0405 18:42:50.939254  1665 net.cpp:122] Setting up data_bn
I0405 18:42:50.939323  1665 net.cpp:129] Top shape: 100 3 128 128 (4915200)
I0405 18:42:50.939388  1665 net.cpp:137] Memory required for data: 39322800
I0405 18:42:50.939466  1665 layer_factory.hpp:77] Creating layer data_scale
I0405 18:42:50.939523  1665 net.cpp:84] Creating Layer data_scale
I0405 18:42:50.939574  1665 net.cpp:406] data_scale <- data_bn
I0405 18:42:50.939627  1665 net.cpp:367] data_scale -> data_bn (in-place)
I0405 18:42:50.939705  1665 layer_factory.hpp:77] Creating layer data_scale
I0405 18:42:50.939878  1665 net.cpp:122] Setting up data_scale
I0405 18:42:50.939934  1665 net.cpp:129] Top shape: 100 3 128 128 (4915200)
I0405 18:42:50.939983  1665 net.cpp:137] Memory required for data: 58983600
I0405 18:42:50.940037  1665 layer_factory.hpp:77] Creating layer conv1
I0405 18:42:50.940095  1665 net.cpp:84] Creating Layer conv1
I0405 18:42:50.940145  1665 net.cpp:406] conv1 <- data_bn
I0405 18:42:50.940212  1665 net.cpp:380] conv1 -> conv1
I0405 18:42:50.940518  1665 net.cpp:122] Setting up conv1
I0405 18:42:50.940579  1665 net.cpp:129] Top shape: 100 64 64 64 (26214400)
I0405 18:42:50.940631  1665 net.cpp:137] Memory required for data: 163841200
I0405 18:42:50.940685  1665 layer_factory.hpp:77] Creating layer conv1_bn
I0405 18:42:50.940755  1665 net.cpp:84] Creating Layer conv1_bn
I0405 18:42:50.940806  1665 net.cpp:406] conv1_bn <- conv1
I0405 18:42:50.940857  1665 net.cpp:367] conv1_bn -> conv1 (in-place)
I0405 18:42:50.941125  1665 net.cpp:122] Setting up conv1_bn
I0405 18:42:50.941186  1665 net.cpp:129] Top shape: 100 64 64 64 (26214400)
I0405 18:42:50.941272  1665 net.cpp:137] Memory required for data: 268698800
I0405 18:42:50.941330  1665 layer_factory.hpp:77] Creating layer conv1_scale
I0405 18:42:50.941381  1665 net.cpp:84] Creating Layer conv1_scale
I0405 18:42:50.941431  1665 net.cpp:406] conv1_scale <- conv1
I0405 18:42:50.941481  1665 net.cpp:367] conv1_scale -> conv1 (in-place)
I0405 18:42:50.941566  1665 layer_factory.hpp:77] Creating layer conv1_scale
I0405 18:42:50.941689  1665 net.cpp:122] Setting up conv1_scale
I0405 18:42:50.941771  1665 net.cpp:129] Top shape: 100 64 64 64 (26214400)
I0405 18:42:50.941824  1665 net.cpp:137] Memory required for data: 373556400
I0405 18:42:50.941876  1665 layer_factory.hpp:77] Creating layer conv1_relu
I0405 18:42:50.941929  1665 net.cpp:84] Creating Layer conv1_relu
I0405 18:42:50.941979  1665 net.cpp:406] conv1_relu <- conv1
I0405 18:42:50.942029  1665 net.cpp:367] conv1_relu -> conv1 (in-place)
I0405 18:42:50.942088  1665 net.cpp:122] Setting up conv1_relu
I0405 18:42:50.942142  1665 net.cpp:129] Top shape: 100 64 64 64 (26214400)
I0405 18:42:50.942191  1665 net.cpp:137] Memory required for data: 478414000
I0405 18:42:50.942250  1665 layer_factory.hpp:77] Creating layer conv1_pool
I0405 18:42:50.942345  1665 net.cpp:84] Creating Layer conv1_pool
I0405 18:42:50.942399  1665 net.cpp:406] conv1_pool <- conv1
I0405 18:42:50.942456  1665 net.cpp:380] conv1_pool -> conv1_pool
I0405 18:42:50.942548  1665 net.cpp:122] Setting up conv1_pool
I0405 18:42:50.942603  1665 net.cpp:129] Top shape: 100 64 32 32 (6553600)
I0405 18:42:50.942665  1665 net.cpp:137] Memory required for data: 504628400
I0405 18:42:50.942740  1665 layer_factory.hpp:77] Creating layer conv1_pool_conv1_pool_0_split
I0405 18:42:50.942800  1665 net.cpp:84] Creating Layer conv1_pool_conv1_pool_0_split
I0405 18:42:50.942852  1665 net.cpp:406] conv1_pool_conv1_pool_0_split <- conv1_pool
I0405 18:42:50.942922  1665 net.cpp:380] conv1_pool_conv1_pool_0_split -> conv1_pool_conv1_pool_0_split_0
I0405 18:42:50.942975  1665 net.cpp:380] conv1_pool_conv1_pool_0_split -> conv1_pool_conv1_pool_0_split_1
I0405 18:42:50.943048  1665 net.cpp:122] Setting up conv1_pool_conv1_pool_0_split
I0405 18:42:50.943100  1665 net.cpp:129] Top shape: 100 64 32 32 (6553600)
I0405 18:42:50.943153  1665 net.cpp:129] Top shape: 100 64 32 32 (6553600)
I0405 18:42:50.943205  1665 net.cpp:137] Memory required for data: 557057200
I0405 18:42:50.943255  1665 layer_factory.hpp:77] Creating layer layer_64_1_conv1
I0405 18:42:50.943310  1665 net.cpp:84] Creating Layer layer_64_1_conv1
I0405 18:42:50.943359  1665 net.cpp:406] layer_64_1_conv1 <- conv1_pool_conv1_pool_0_split_0
I0405 18:42:50.943410  1665 net.cpp:380] layer_64_1_conv1 -> layer_64_1_conv1
I0405 18:42:50.943903  1665 net.cpp:122] Setting up layer_64_1_conv1
I0405 18:42:50.943972  1665 net.cpp:129] Top shape: 100 64 32 32 (6553600)
I0405 18:42:50.944028  1665 net.cpp:137] Memory required for data: 583271600
I0405 18:42:50.944082  1665 layer_factory.hpp:77] Creating layer layer_64_1_bn2
I0405 18:42:50.944135  1665 net.cpp:84] Creating Layer layer_64_1_bn2
I0405 18:42:50.944187  1665 net.cpp:406] layer_64_1_bn2 <- layer_64_1_conv1
I0405 18:42:50.944239  1665 net.cpp:367] layer_64_1_bn2 -> layer_64_1_conv1 (in-place)
I0405 18:42:50.945739  1665 net.cpp:122] Setting up layer_64_1_bn2
I0405 18:42:50.945855  1665 net.cpp:129] Top shape: 100 64 32 32 (6553600)
I0405 18:42:50.945945  1665 net.cpp:137] Memory required for data: 609486000
I0405 18:42:50.946012  1665 layer_factory.hpp:77] Creating layer layer_64_1_scale2
I0405 18:42:50.946079  1665 net.cpp:84] Creating Layer layer_64_1_scale2
I0405 18:42:50.946156  1665 net.cpp:406] layer_64_1_scale2 <- layer_64_1_conv1
I0405 18:42:50.946225  1665 net.cpp:367] layer_64_1_scale2 -> layer_64_1_conv1 (in-place)
I0405 18:42:50.946332  1665 layer_factory.hpp:77] Creating layer layer_64_1_scale2
I0405 18:42:50.946501  1665 net.cpp:122] Setting up layer_64_1_scale2
I0405 18:42:50.946588  1665 net.cpp:129] Top shape: 100 64 32 32 (6553600)
I0405 18:42:50.946642  1665 net.cpp:137] Memory required for data: 635700400
I0405 18:42:50.946709  1665 layer_factory.hpp:77] Creating layer layer_64_1_relu2
I0405 18:42:50.946786  1665 net.cpp:84] Creating Layer layer_64_1_relu2
I0405 18:42:50.946854  1665 net.cpp:406] layer_64_1_relu2 <- layer_64_1_conv1
I0405 18:42:50.946910  1665 net.cpp:367] layer_64_1_relu2 -> layer_64_1_conv1 (in-place)
I0405 18:42:50.946974  1665 net.cpp:122] Setting up layer_64_1_relu2
I0405 18:42:50.947036  1665 net.cpp:129] Top shape: 100 64 32 32 (6553600)
I0405 18:42:50.947100  1665 net.cpp:137] Memory required for data: 661914800
I0405 18:42:50.947172  1665 layer_factory.hpp:77] Creating layer layer_64_1_conv2
I0405 18:42:50.947238  1665 net.cpp:84] Creating Layer layer_64_1_conv2
I0405 18:42:50.947299  1665 net.cpp:406] layer_64_1_conv2 <- layer_64_1_conv1
I0405 18:42:50.947360  1665 net.cpp:380] layer_64_1_conv2 -> layer_64_1_conv2
I0405 18:42:50.947871  1665 net.cpp:122] Setting up layer_64_1_conv2
I0405 18:42:50.947976  1665 net.cpp:129] Top shape: 100 64 32 32 (6553600)
I0405 18:42:50.948038  1665 net.cpp:137] Memory required for data: 688129200
I0405 18:42:50.948096  1665 layer_factory.hpp:77] Creating layer layer_64_1_sum
I0405 18:42:50.948158  1665 net.cpp:84] Creating Layer layer_64_1_sum
I0405 18:42:50.948215  1665 net.cpp:406] layer_64_1_sum <- layer_64_1_conv2
I0405 18:42:50.948273  1665 net.cpp:406] layer_64_1_sum <- conv1_pool_conv1_pool_0_split_1
I0405 18:42:50.948362  1665 net.cpp:380] layer_64_1_sum -> layer_64_1_sum
I0405 18:42:50.948441  1665 net.cpp:122] Setting up layer_64_1_sum
I0405 18:42:50.948520  1665 net.cpp:129] Top shape: 100 64 32 32 (6553600)
I0405 18:42:50.948576  1665 net.cpp:137] Memory required for data: 714343600
I0405 18:42:50.948637  1665 layer_factory.hpp:77] Creating layer layer_128_1_bn1
I0405 18:42:50.948712  1665 net.cpp:84] Creating Layer layer_128_1_bn1
I0405 18:42:50.948791  1665 net.cpp:406] layer_128_1_bn1 <- layer_64_1_sum
I0405 18:42:50.948873  1665 net.cpp:380] layer_128_1_bn1 -> layer_128_1_bn1
I0405 18:42:50.949086  1665 net.cpp:122] Setting up layer_128_1_bn1
I0405 18:42:50.949172  1665 net.cpp:129] Top shape: 100 64 32 32 (6553600)
I0405 18:42:50.949256  1665 net.cpp:137] Memory required for data: 740558000
I0405 18:42:50.949322  1665 layer_factory.hpp:77] Creating layer layer_128_1_scale1
I0405 18:42:50.949395  1665 net.cpp:84] Creating Layer layer_128_1_scale1
I0405 18:42:50.949455  1665 net.cpp:406] layer_128_1_scale1 <- layer_128_1_bn1
I0405 18:42:50.949528  1665 net.cpp:367] layer_128_1_scale1 -> layer_128_1_bn1 (in-place)
I0405 18:42:50.949626  1665 layer_factory.hpp:77] Creating layer layer_128_1_scale1
I0405 18:42:50.949801  1665 net.cpp:122] Setting up layer_128_1_scale1
I0405 18:42:50.949887  1665 net.cpp:129] Top shape: 100 64 32 32 (6553600)
I0405 18:42:50.949947  1665 net.cpp:137] Memory required for data: 766772400
I0405 18:42:50.950011  1665 layer_factory.hpp:77] Creating layer layer_128_1_relu1
I0405 18:42:50.950073  1665 net.cpp:84] Creating Layer layer_128_1_relu1
I0405 18:42:50.950134  1665 net.cpp:406] layer_128_1_relu1 <- layer_128_1_bn1
I0405 18:42:50.950193  1665 net.cpp:367] layer_128_1_relu1 -> layer_128_1_bn1 (in-place)
I0405 18:42:50.950261  1665 net.cpp:122] Setting up layer_128_1_relu1
I0405 18:42:50.950325  1665 net.cpp:129] Top shape: 100 64 32 32 (6553600)
I0405 18:42:50.950388  1665 net.cpp:137] Memory required for data: 792986800
I0405 18:42:50.950448  1665 layer_factory.hpp:77] Creating layer layer_128_1_bn1_layer_128_1_relu1_0_split
I0405 18:42:50.950510  1665 net.cpp:84] Creating Layer layer_128_1_bn1_layer_128_1_relu1_0_split
I0405 18:42:50.950572  1665 net.cpp:406] layer_128_1_bn1_layer_128_1_relu1_0_split <- layer_128_1_bn1
I0405 18:42:50.950646  1665 net.cpp:380] layer_128_1_bn1_layer_128_1_relu1_0_split -> layer_128_1_bn1_layer_128_1_relu1_0_split_0
I0405 18:42:50.950732  1665 net.cpp:380] layer_128_1_bn1_layer_128_1_relu1_0_split -> layer_128_1_bn1_layer_128_1_relu1_0_split_1
I0405 18:42:50.950832  1665 net.cpp:122] Setting up layer_128_1_bn1_layer_128_1_relu1_0_split
I0405 18:42:50.950893  1665 net.cpp:129] Top shape: 100 64 32 32 (6553600)
I0405 18:42:50.950954  1665 net.cpp:129] Top shape: 100 64 32 32 (6553600)
I0405 18:42:50.951012  1665 net.cpp:137] Memory required for data: 845415600
I0405 18:42:50.951071  1665 layer_factory.hpp:77] Creating layer layer_128_1_conv1
I0405 18:42:50.951134  1665 net.cpp:84] Creating Layer layer_128_1_conv1
I0405 18:42:50.951195  1665 net.cpp:406] layer_128_1_conv1 <- layer_128_1_bn1_layer_128_1_relu1_0_split_0
I0405 18:42:50.951275  1665 net.cpp:380] layer_128_1_conv1 -> layer_128_1_conv1
I0405 18:42:50.952252  1665 net.cpp:122] Setting up layer_128_1_conv1
I0405 18:42:50.952352  1665 net.cpp:129] Top shape: 100 128 16 16 (3276800)
I0405 18:42:50.952427  1665 net.cpp:137] Memory required for data: 858522800
I0405 18:42:50.952499  1665 layer_factory.hpp:77] Creating layer layer_128_1_bn2
I0405 18:42:50.952559  1665 net.cpp:84] Creating Layer layer_128_1_bn2
I0405 18:42:50.952632  1665 net.cpp:406] layer_128_1_bn2 <- layer_128_1_conv1
I0405 18:42:50.952690  1665 net.cpp:367] layer_128_1_bn2 -> layer_128_1_conv1 (in-place)
I0405 18:42:50.952926  1665 net.cpp:122] Setting up layer_128_1_bn2
I0405 18:42:50.953023  1665 net.cpp:129] Top shape: 100 128 16 16 (3276800)
I0405 18:42:50.953075  1665 net.cpp:137] Memory required for data: 871630000
I0405 18:42:50.953138  1665 layer_factory.hpp:77] Creating layer layer_128_1_scale2
I0405 18:42:50.953207  1665 net.cpp:84] Creating Layer layer_128_1_scale2
I0405 18:42:50.953269  1665 net.cpp:406] layer_128_1_scale2 <- layer_128_1_conv1
I0405 18:42:50.953330  1665 net.cpp:367] layer_128_1_scale2 -> layer_128_1_conv1 (in-place)
I0405 18:42:50.953424  1665 layer_factory.hpp:77] Creating layer layer_128_1_scale2
I0405 18:42:50.953584  1665 net.cpp:122] Setting up layer_128_1_scale2
I0405 18:42:50.953665  1665 net.cpp:129] Top shape: 100 128 16 16 (3276800)
I0405 18:42:50.953750  1665 net.cpp:137] Memory required for data: 884737200
I0405 18:42:50.953820  1665 layer_factory.hpp:77] Creating layer layer_128_1_relu2
I0405 18:42:50.953883  1665 net.cpp:84] Creating Layer layer_128_1_relu2
I0405 18:42:50.953944  1665 net.cpp:406] layer_128_1_relu2 <- layer_128_1_conv1
I0405 18:42:50.954005  1665 net.cpp:367] layer_128_1_relu2 -> layer_128_1_conv1 (in-place)
I0405 18:42:50.954084  1665 net.cpp:122] Setting up layer_128_1_relu2
I0405 18:42:50.954172  1665 net.cpp:129] Top shape: 100 128 16 16 (3276800)
I0405 18:42:50.954452  1665 net.cpp:137] Memory required for data: 897844400
I0405 18:42:50.954551  1665 layer_factory.hpp:77] Creating layer layer_128_1_conv2
I0405 18:42:50.954619  1665 net.cpp:84] Creating Layer layer_128_1_conv2
I0405 18:42:50.954680  1665 net.cpp:406] layer_128_1_conv2 <- layer_128_1_conv1
I0405 18:42:50.954756  1665 net.cpp:380] layer_128_1_conv2 -> layer_128_1_conv2
I0405 18:42:50.956369  1665 net.cpp:122] Setting up layer_128_1_conv2
I0405 18:42:50.956445  1665 net.cpp:129] Top shape: 100 128 16 16 (3276800)
I0405 18:42:50.956503  1665 net.cpp:137] Memory required for data: 910951600
I0405 18:42:50.956560  1665 layer_factory.hpp:77] Creating layer layer_128_1_conv_expand
I0405 18:42:50.956622  1665 net.cpp:84] Creating Layer layer_128_1_conv_expand
I0405 18:42:50.956678  1665 net.cpp:406] layer_128_1_conv_expand <- layer_128_1_bn1_layer_128_1_relu1_0_split_1
I0405 18:42:50.956761  1665 net.cpp:380] layer_128_1_conv_expand -> layer_128_1_conv_expand
I0405 18:42:50.957016  1665 net.cpp:122] Setting up layer_128_1_conv_expand
I0405 18:42:50.957123  1665 net.cpp:129] Top shape: 100 128 16 16 (3276800)
I0405 18:42:50.957186  1665 net.cpp:137] Memory required for data: 924058800
I0405 18:42:50.957243  1665 layer_factory.hpp:77] Creating layer layer_128_1_sum
I0405 18:42:50.957314  1665 net.cpp:84] Creating Layer layer_128_1_sum
I0405 18:42:50.957371  1665 net.cpp:406] layer_128_1_sum <- layer_128_1_conv2
I0405 18:42:50.957432  1665 net.cpp:406] layer_128_1_sum <- layer_128_1_conv_expand
I0405 18:42:50.957515  1665 net.cpp:380] layer_128_1_sum -> layer_128_1_sum
I0405 18:42:50.957600  1665 net.cpp:122] Setting up layer_128_1_sum
I0405 18:42:50.957675  1665 net.cpp:129] Top shape: 100 128 16 16 (3276800)
I0405 18:42:50.957744  1665 net.cpp:137] Memory required for data: 937166000
I0405 18:42:50.957800  1665 layer_factory.hpp:77] Creating layer layer_256_1_bn1
I0405 18:42:50.957859  1665 net.cpp:84] Creating Layer layer_256_1_bn1
I0405 18:42:50.957916  1665 net.cpp:406] layer_256_1_bn1 <- layer_128_1_sum
I0405 18:42:50.957975  1665 net.cpp:380] layer_256_1_bn1 -> layer_256_1_bn1
I0405 18:42:50.958176  1665 net.cpp:122] Setting up layer_256_1_bn1
I0405 18:42:50.958292  1665 net.cpp:129] Top shape: 100 128 16 16 (3276800)
I0405 18:42:50.958344  1665 net.cpp:137] Memory required for data: 950273200
I0405 18:42:50.958406  1665 layer_factory.hpp:77] Creating layer layer_256_1_scale1
I0405 18:42:50.958464  1665 net.cpp:84] Creating Layer layer_256_1_scale1
I0405 18:42:50.958528  1665 net.cpp:406] layer_256_1_scale1 <- layer_256_1_bn1
I0405 18:42:50.958614  1665 net.cpp:367] layer_256_1_scale1 -> layer_256_1_bn1 (in-place)
I0405 18:42:50.958734  1665 layer_factory.hpp:77] Creating layer layer_256_1_scale1
I0405 18:42:50.958876  1665 net.cpp:122] Setting up layer_256_1_scale1
I0405 18:42:50.958957  1665 net.cpp:129] Top shape: 100 128 16 16 (3276800)
I0405 18:42:50.959013  1665 net.cpp:137] Memory required for data: 963380400
I0405 18:42:50.959071  1665 layer_factory.hpp:77] Creating layer layer_256_1_relu1
I0405 18:42:50.959132  1665 net.cpp:84] Creating Layer layer_256_1_relu1
I0405 18:42:50.959188  1665 net.cpp:406] layer_256_1_relu1 <- layer_256_1_bn1
I0405 18:42:50.959246  1665 net.cpp:367] layer_256_1_relu1 -> layer_256_1_bn1 (in-place)
I0405 18:42:50.959303  1665 net.cpp:122] Setting up layer_256_1_relu1
I0405 18:42:50.959372  1665 net.cpp:129] Top shape: 100 128 16 16 (3276800)
I0405 18:42:50.959444  1665 net.cpp:137] Memory required for data: 976487600
I0405 18:42:50.959503  1665 layer_factory.hpp:77] Creating layer layer_256_1_bn1_layer_256_1_relu1_0_split
I0405 18:42:50.959558  1665 net.cpp:84] Creating Layer layer_256_1_bn1_layer_256_1_relu1_0_split
I0405 18:42:50.959612  1665 net.cpp:406] layer_256_1_bn1_layer_256_1_relu1_0_split <- layer_256_1_bn1
I0405 18:42:50.959672  1665 net.cpp:380] layer_256_1_bn1_layer_256_1_relu1_0_split -> layer_256_1_bn1_layer_256_1_relu1_0_split_0
I0405 18:42:50.959749  1665 net.cpp:380] layer_256_1_bn1_layer_256_1_relu1_0_split -> layer_256_1_bn1_layer_256_1_relu1_0_split_1
I0405 18:42:50.959836  1665 net.cpp:122] Setting up layer_256_1_bn1_layer_256_1_relu1_0_split
I0405 18:42:50.959905  1665 net.cpp:129] Top shape: 100 128 16 16 (3276800)
I0405 18:42:50.959964  1665 net.cpp:129] Top shape: 100 128 16 16 (3276800)
I0405 18:42:50.960019  1665 net.cpp:137] Memory required for data: 1002702000
I0405 18:42:50.960083  1665 layer_factory.hpp:77] Creating layer layer_256_1_conv1
I0405 18:42:50.960140  1665 net.cpp:84] Creating Layer layer_256_1_conv1
I0405 18:42:50.960194  1665 net.cpp:406] layer_256_1_conv1 <- layer_256_1_bn1_layer_256_1_relu1_0_split_0
I0405 18:42:50.960278  1665 net.cpp:380] layer_256_1_conv1 -> layer_256_1_conv1
I0405 18:42:50.964257  1665 net.cpp:122] Setting up layer_256_1_conv1
I0405 18:42:50.964352  1665 net.cpp:129] Top shape: 100 256 8 8 (1638400)
I0405 18:42:50.964424  1665 net.cpp:137] Memory required for data: 1009255600
I0405 18:42:50.964481  1665 layer_factory.hpp:77] Creating layer layer_256_1_bn2
I0405 18:42:50.964542  1665 net.cpp:84] Creating Layer layer_256_1_bn2
I0405 18:42:50.964601  1665 net.cpp:406] layer_256_1_bn2 <- layer_256_1_conv1
I0405 18:42:50.964660  1665 net.cpp:367] layer_256_1_bn2 -> layer_256_1_conv1 (in-place)
I0405 18:42:50.964890  1665 net.cpp:122] Setting up layer_256_1_bn2
I0405 18:42:50.964993  1665 net.cpp:129] Top shape: 100 256 8 8 (1638400)
I0405 18:42:50.965049  1665 net.cpp:137] Memory required for data: 1015809200
I0405 18:42:50.965106  1665 layer_factory.hpp:77] Creating layer layer_256_1_scale2
I0405 18:42:50.965165  1665 net.cpp:84] Creating Layer layer_256_1_scale2
I0405 18:42:50.965231  1665 net.cpp:406] layer_256_1_scale2 <- layer_256_1_conv1
I0405 18:42:50.965286  1665 net.cpp:367] layer_256_1_scale2 -> layer_256_1_conv1 (in-place)
I0405 18:42:50.965384  1665 layer_factory.hpp:77] Creating layer layer_256_1_scale2
I0405 18:42:50.965555  1665 net.cpp:122] Setting up layer_256_1_scale2
I0405 18:42:50.965623  1665 net.cpp:129] Top shape: 100 256 8 8 (1638400)
I0405 18:42:50.965680  1665 net.cpp:137] Memory required for data: 1022362800
I0405 18:42:50.965762  1665 layer_factory.hpp:77] Creating layer layer_256_1_relu2
I0405 18:42:50.965822  1665 net.cpp:84] Creating Layer layer_256_1_relu2
I0405 18:42:50.965878  1665 net.cpp:406] layer_256_1_relu2 <- layer_256_1_conv1
I0405 18:42:50.965935  1665 net.cpp:367] layer_256_1_relu2 -> layer_256_1_conv1 (in-place)
I0405 18:42:50.965994  1665 net.cpp:122] Setting up layer_256_1_relu2
I0405 18:42:50.966053  1665 net.cpp:129] Top shape: 100 256 8 8 (1638400)
I0405 18:42:50.966107  1665 net.cpp:137] Memory required for data: 1028916400
I0405 18:42:50.966159  1665 layer_factory.hpp:77] Creating layer layer_256_1_conv2
I0405 18:42:50.966219  1665 net.cpp:84] Creating Layer layer_256_1_conv2
I0405 18:42:50.966279  1665 net.cpp:406] layer_256_1_conv2 <- layer_256_1_conv1
I0405 18:42:50.966338  1665 net.cpp:380] layer_256_1_conv2 -> layer_256_1_conv2
I0405 18:42:50.972906  1665 net.cpp:122] Setting up layer_256_1_conv2
I0405 18:42:50.973006  1665 net.cpp:129] Top shape: 100 256 8 8 (1638400)
I0405 18:42:50.973064  1665 net.cpp:137] Memory required for data: 1035470000
I0405 18:42:50.973146  1665 layer_factory.hpp:77] Creating layer layer_256_1_conv_expand
I0405 18:42:50.973228  1665 net.cpp:84] Creating Layer layer_256_1_conv_expand
I0405 18:42:50.973302  1665 net.cpp:406] layer_256_1_conv_expand <- layer_256_1_bn1_layer_256_1_relu1_0_split_1
I0405 18:42:50.973361  1665 net.cpp:380] layer_256_1_conv_expand -> layer_256_1_conv_expand
I0405 18:42:50.973927  1665 net.cpp:122] Setting up layer_256_1_conv_expand
I0405 18:42:50.974020  1665 net.cpp:129] Top shape: 100 256 8 8 (1638400)
I0405 18:42:50.974078  1665 net.cpp:137] Memory required for data: 1042023600
I0405 18:42:50.974136  1665 layer_factory.hpp:77] Creating layer layer_256_1_sum
I0405 18:42:50.974202  1665 net.cpp:84] Creating Layer layer_256_1_sum
I0405 18:42:50.974262  1665 net.cpp:406] layer_256_1_sum <- layer_256_1_conv2
I0405 18:42:50.974320  1665 net.cpp:406] layer_256_1_sum <- layer_256_1_conv_expand
I0405 18:42:50.974380  1665 net.cpp:380] layer_256_1_sum -> layer_256_1_sum
I0405 18:42:50.974459  1665 net.cpp:122] Setting up layer_256_1_sum
I0405 18:42:50.974539  1665 net.cpp:129] Top shape: 100 256 8 8 (1638400)
I0405 18:42:50.974597  1665 net.cpp:137] Memory required for data: 1048577200
I0405 18:42:50.974654  1665 layer_factory.hpp:77] Creating layer layer_512_1_bn1
I0405 18:42:50.974735  1665 net.cpp:84] Creating Layer layer_512_1_bn1
I0405 18:42:50.974793  1665 net.cpp:406] layer_512_1_bn1 <- layer_256_1_sum
I0405 18:42:50.974851  1665 net.cpp:380] layer_512_1_bn1 -> layer_512_1_bn1
I0405 18:42:50.975054  1665 net.cpp:122] Setting up layer_512_1_bn1
I0405 18:42:50.975140  1665 net.cpp:129] Top shape: 100 256 8 8 (1638400)
I0405 18:42:50.975203  1665 net.cpp:137] Memory required for data: 1055130800
I0405 18:42:50.975262  1665 layer_factory.hpp:77] Creating layer layer_512_1_scale1
I0405 18:42:50.975334  1665 net.cpp:84] Creating Layer layer_512_1_scale1
I0405 18:42:50.975385  1665 net.cpp:406] layer_512_1_scale1 <- layer_512_1_bn1
I0405 18:42:50.975448  1665 net.cpp:367] layer_512_1_scale1 -> layer_512_1_bn1 (in-place)
I0405 18:42:50.975536  1665 layer_factory.hpp:77] Creating layer layer_512_1_scale1
I0405 18:42:50.975694  1665 net.cpp:122] Setting up layer_512_1_scale1
I0405 18:42:50.975793  1665 net.cpp:129] Top shape: 100 256 8 8 (1638400)
I0405 18:42:50.975849  1665 net.cpp:137] Memory required for data: 1061684400
I0405 18:42:50.975908  1665 layer_factory.hpp:77] Creating layer layer_512_1_relu1
I0405 18:42:50.975966  1665 net.cpp:84] Creating Layer layer_512_1_relu1
I0405 18:42:50.976022  1665 net.cpp:406] layer_512_1_relu1 <- layer_512_1_bn1
I0405 18:42:50.976079  1665 net.cpp:367] layer_512_1_relu1 -> layer_512_1_bn1 (in-place)
I0405 18:42:50.976136  1665 net.cpp:122] Setting up layer_512_1_relu1
I0405 18:42:50.976193  1665 net.cpp:129] Top shape: 100 256 8 8 (1638400)
I0405 18:42:50.976255  1665 net.cpp:137] Memory required for data: 1068238000
I0405 18:42:50.976310  1665 layer_factory.hpp:77] Creating layer layer_512_1_bn1_layer_512_1_relu1_0_split
I0405 18:42:50.976367  1665 net.cpp:84] Creating Layer layer_512_1_bn1_layer_512_1_relu1_0_split
I0405 18:42:50.976423  1665 net.cpp:406] layer_512_1_bn1_layer_512_1_relu1_0_split <- layer_512_1_bn1
I0405 18:42:50.976485  1665 net.cpp:380] layer_512_1_bn1_layer_512_1_relu1_0_split -> layer_512_1_bn1_layer_512_1_relu1_0_split_0
I0405 18:42:50.976545  1665 net.cpp:380] layer_512_1_bn1_layer_512_1_relu1_0_split -> layer_512_1_bn1_layer_512_1_relu1_0_split_1
I0405 18:42:50.976636  1665 net.cpp:122] Setting up layer_512_1_bn1_layer_512_1_relu1_0_split
I0405 18:42:50.976697  1665 net.cpp:129] Top shape: 100 256 8 8 (1638400)
I0405 18:42:50.976781  1665 net.cpp:129] Top shape: 100 256 8 8 (1638400)
I0405 18:42:50.976864  1665 net.cpp:137] Memory required for data: 1081345200
I0405 18:42:50.976920  1665 layer_factory.hpp:77] Creating layer layer_512_1_conv1
I0405 18:42:50.976982  1665 net.cpp:84] Creating Layer layer_512_1_conv1
I0405 18:42:50.977038  1665 net.cpp:406] layer_512_1_conv1 <- layer_512_1_bn1_layer_512_1_relu1_0_split_0
I0405 18:42:50.977095  1665 net.cpp:380] layer_512_1_conv1 -> layer_512_1_conv1
I0405 18:42:50.989635  1665 net.cpp:122] Setting up layer_512_1_conv1
I0405 18:42:50.989749  1665 net.cpp:129] Top shape: 100 512 4 4 (819200)
I0405 18:42:50.989810  1665 net.cpp:137] Memory required for data: 1084622000
I0405 18:42:50.989869  1665 layer_factory.hpp:77] Creating layer layer_512_1_bn2
I0405 18:42:50.989929  1665 net.cpp:84] Creating Layer layer_512_1_bn2
I0405 18:42:50.989986  1665 net.cpp:406] layer_512_1_bn2 <- layer_512_1_conv1
I0405 18:42:50.990046  1665 net.cpp:367] layer_512_1_bn2 -> layer_512_1_conv1 (in-place)
I0405 18:42:50.990264  1665 net.cpp:122] Setting up layer_512_1_bn2
I0405 18:42:50.990342  1665 net.cpp:129] Top shape: 100 512 4 4 (819200)
I0405 18:42:50.990398  1665 net.cpp:137] Memory required for data: 1087898800
I0405 18:42:50.990466  1665 layer_factory.hpp:77] Creating layer layer_512_1_scale2
I0405 18:42:50.990523  1665 net.cpp:84] Creating Layer layer_512_1_scale2
I0405 18:42:50.990597  1665 net.cpp:406] layer_512_1_scale2 <- layer_512_1_conv1
I0405 18:42:50.990655  1665 net.cpp:367] layer_512_1_scale2 -> layer_512_1_conv1 (in-place)
I0405 18:42:50.990762  1665 layer_factory.hpp:77] Creating layer layer_512_1_scale2
I0405 18:42:50.990917  1665 net.cpp:122] Setting up layer_512_1_scale2
I0405 18:42:50.990978  1665 net.cpp:129] Top shape: 100 512 4 4 (819200)
I0405 18:42:50.991034  1665 net.cpp:137] Memory required for data: 1091175600
I0405 18:42:50.991093  1665 layer_factory.hpp:77] Creating layer layer_512_1_relu2
I0405 18:42:50.991151  1665 net.cpp:84] Creating Layer layer_512_1_relu2
I0405 18:42:50.991225  1665 net.cpp:406] layer_512_1_relu2 <- layer_512_1_conv1
I0405 18:42:50.991279  1665 net.cpp:367] layer_512_1_relu2 -> layer_512_1_conv1 (in-place)
I0405 18:42:50.991353  1665 net.cpp:122] Setting up layer_512_1_relu2
I0405 18:42:50.991410  1665 net.cpp:129] Top shape: 100 512 4 4 (819200)
I0405 18:42:50.991466  1665 net.cpp:137] Memory required for data: 1094452400
I0405 18:42:50.991521  1665 layer_factory.hpp:77] Creating layer layer_512_1_conv2
I0405 18:42:50.991587  1665 net.cpp:84] Creating Layer layer_512_1_conv2
I0405 18:42:50.991659  1665 net.cpp:406] layer_512_1_conv2 <- layer_512_1_conv1
I0405 18:42:50.991771  1665 net.cpp:380] layer_512_1_conv2 -> layer_512_1_conv2
I0405 18:42:51.017668  1665 net.cpp:122] Setting up layer_512_1_conv2
I0405 18:42:51.017798  1665 net.cpp:129] Top shape: 100 512 4 4 (819200)
I0405 18:42:51.017889  1665 net.cpp:137] Memory required for data: 1097729200
I0405 18:42:51.017951  1665 layer_factory.hpp:77] Creating layer layer_512_1_conv_expand
I0405 18:42:51.018018  1665 net.cpp:84] Creating Layer layer_512_1_conv_expand
I0405 18:42:51.018095  1665 net.cpp:406] layer_512_1_conv_expand <- layer_512_1_bn1_layer_512_1_relu1_0_split_1
I0405 18:42:51.018168  1665 net.cpp:380] layer_512_1_conv_expand -> layer_512_1_conv_expand
I0405 18:42:51.019680  1665 net.cpp:122] Setting up layer_512_1_conv_expand
I0405 18:42:51.019814  1665 net.cpp:129] Top shape: 100 512 4 4 (819200)
I0405 18:42:51.019887  1665 net.cpp:137] Memory required for data: 1101006000
I0405 18:42:51.019961  1665 layer_factory.hpp:77] Creating layer layer_512_1_sum
I0405 18:42:51.020015  1665 net.cpp:84] Creating Layer layer_512_1_sum
I0405 18:42:51.020076  1665 net.cpp:406] layer_512_1_sum <- layer_512_1_conv2
I0405 18:42:51.020138  1665 net.cpp:406] layer_512_1_sum <- layer_512_1_conv_expand
I0405 18:42:51.020206  1665 net.cpp:380] layer_512_1_sum -> layer_512_1_sum
I0405 18:42:51.020298  1665 net.cpp:122] Setting up layer_512_1_sum
I0405 18:42:51.020360  1665 net.cpp:129] Top shape: 100 512 4 4 (819200)
I0405 18:42:51.020419  1665 net.cpp:137] Memory required for data: 1104282800
I0405 18:42:51.020478  1665 layer_factory.hpp:77] Creating layer last_bn
I0405 18:42:51.020541  1665 net.cpp:84] Creating Layer last_bn
I0405 18:42:51.020601  1665 net.cpp:406] last_bn <- layer_512_1_sum
I0405 18:42:51.020661  1665 net.cpp:367] last_bn -> layer_512_1_sum (in-place)
I0405 18:42:51.020879  1665 net.cpp:122] Setting up last_bn
I0405 18:42:51.020958  1665 net.cpp:129] Top shape: 100 512 4 4 (819200)
I0405 18:42:51.021020  1665 net.cpp:137] Memory required for data: 1107559600
I0405 18:42:51.021098  1665 layer_factory.hpp:77] Creating layer last_scale
I0405 18:42:51.021153  1665 net.cpp:84] Creating Layer last_scale
I0405 18:42:51.021205  1665 net.cpp:406] last_scale <- layer_512_1_sum
I0405 18:42:51.021260  1665 net.cpp:367] last_scale -> layer_512_1_sum (in-place)
I0405 18:42:51.021368  1665 layer_factory.hpp:77] Creating layer last_scale
I0405 18:42:51.021514  1665 net.cpp:122] Setting up last_scale
I0405 18:42:51.021591  1665 net.cpp:129] Top shape: 100 512 4 4 (819200)
I0405 18:42:51.021644  1665 net.cpp:137] Memory required for data: 1110836400
I0405 18:42:51.021698  1665 layer_factory.hpp:77] Creating layer last_relu
I0405 18:42:51.022451  1665 net.cpp:84] Creating Layer last_relu
I0405 18:42:51.022545  1665 net.cpp:406] last_relu <- layer_512_1_sum
I0405 18:42:51.022612  1665 net.cpp:367] last_relu -> layer_512_1_sum (in-place)
I0405 18:42:51.022676  1665 net.cpp:122] Setting up last_relu
I0405 18:42:51.022763  1665 net.cpp:129] Top shape: 100 512 4 4 (819200)
I0405 18:42:51.022866  1665 net.cpp:137] Memory required for data: 1114113200
I0405 18:42:51.022951  1665 layer_factory.hpp:77] Creating layer global_pool
I0405 18:42:51.023010  1665 net.cpp:84] Creating Layer global_pool
I0405 18:42:51.023069  1665 net.cpp:406] global_pool <- layer_512_1_sum
I0405 18:42:51.023130  1665 net.cpp:380] global_pool -> global_pool
I0405 18:42:51.023232  1665 net.cpp:122] Setting up global_pool
I0405 18:42:51.023298  1665 net.cpp:129] Top shape: 100 512 1 1 (51200)
I0405 18:42:51.023360  1665 net.cpp:137] Memory required for data: 1114318000
I0405 18:42:51.023418  1665 layer_factory.hpp:77] Creating layer score
I0405 18:42:51.023479  1665 net.cpp:84] Creating Layer score
I0405 18:42:51.023540  1665 net.cpp:406] score <- global_pool
I0405 18:42:51.023600  1665 net.cpp:380] score -> score
I0405 18:42:51.025032  1665 net.cpp:122] Setting up score
I0405 18:42:51.025133  1665 net.cpp:129] Top shape: 100 1000 (100000)
I0405 18:42:51.025208  1665 net.cpp:137] Memory required for data: 1114718000
I0405 18:42:51.025290  1665 layer_factory.hpp:77] Creating layer score_score_0_split
I0405 18:42:51.025347  1665 net.cpp:84] Creating Layer score_score_0_split
I0405 18:42:51.025401  1665 net.cpp:406] score_score_0_split <- score
I0405 18:42:51.025454  1665 net.cpp:380] score_score_0_split -> score_score_0_split_0
I0405 18:42:51.025511  1665 net.cpp:380] score_score_0_split -> score_score_0_split_1
I0405 18:42:51.025600  1665 net.cpp:122] Setting up score_score_0_split
I0405 18:42:51.025671  1665 net.cpp:129] Top shape: 100 1000 (100000)
I0405 18:42:51.025754  1665 net.cpp:129] Top shape: 100 1000 (100000)
I0405 18:42:51.025808  1665 net.cpp:137] Memory required for data: 1115518000
I0405 18:42:51.025861  1665 layer_factory.hpp:77] Creating layer loss
I0405 18:42:51.025914  1665 net.cpp:84] Creating Layer loss
I0405 18:42:51.025980  1665 net.cpp:406] loss <- score_score_0_split_0
I0405 18:42:51.026033  1665 net.cpp:406] loss <- label_data_1_split_0
I0405 18:42:51.026093  1665 net.cpp:380] loss -> loss
…
