…
I0405 12:32:33.225150  1848 net.cpp:294] The NetState phase (0) differed from the phase (1) specified by a rule in layer accuracy
I0405 12:32:33.225349  1848 net.cpp:51] Initializing net from parameters: 
name: "BVLC_CORe50_mid_CaffeNet"
state {
  phase: TRAIN
}
layer {
  name: "ior50"
  type: "ImageData"
  top: "data"
  top: "label"
  include {
    phase: TRAIN
  }
  transform_param {
    mean_value: 104
    mean_value: 117
    mean_value: 123
  }
  image_data_param {
    source: "data/sII_cum/run0/train_batch_00_filelist.txt"
    batch_size: 256
    shuffle: true
    root_folder: "data/core50_128x128/"
  }
}
layer {
  name: "conv1"
  type: "Convolution"
  bottom: "data"
  top: "conv1"
  param {
    lr_mult: 1
  }
  param {
    lr_mult: 2
  }
  convolution_param {
    num_output: 96
    kernel_size: 11
    stride: 4
    weight_filler {
      type: "gaussian"
      std: 0.01
    }
    bias_filler {
      type: "constant"
      value: 0
    }
  }
}
layer {
  name: "relu1"
  type: "ReLU"
  bottom: "conv1"
  top: "conv1"
}
layer {
  name: "pool1"
  type: "Pooling"
  bottom: "conv1"
  top: "pool1"
  pooling_param {
    pool: MAX
    kernel_size: 3
    stride: 2
  }
}
layer {
  name: "norm1"
  type: "LRN"
  bottom: "pool1"
  top: "norm1"
  lrn_param {
    local_size: 5
    alpha: 0.0001
    beta: 0.75
  }
}
layer {
  name: "conv2"
  type: "Convolution"
  bottom: "norm1"
  top: "conv2"
  param {
    lr_mult: 1
  }
  param {
    lr_mult: 2
  }
  convolution_param {
    num_output: 256
    pad: 2
    kernel_size: 5
    group: 2
    weight_filler {
      type: "gaussian"
      std: 0.01
    }
    bias_filler {
      type: "constant"
      value: 1
    }
  }
}
layer {
  name: "relu2"
  type: "ReLU"
  bottom: "conv2"
  top: "conv2"
}
layer {
  name: "pool2"
  type: "Pooling"
  bottom: "conv2"
  top: "pool2"
  pooling_param {
    pool: MAX
    kernel_size: 3
    stride: 2
  }
}
layer {
  name: "norm2"
  type: "LRN"
  bottom: "pool2"
  top: "norm2"
  lrn_param {
    local_size: 5
    alpha: 0.0001
    beta: 0.75
  }
}
layer {
  name: "conv3"
  type: "Convolution"
  bottom: "norm2"
  top: "conv3"
  param {
    lr_mult: 1
  }
  param {
    lr_mult: 2
  }
  convolution_param {
    num_output: 384
    pad: 1
    kernel_size: 3
    weight_filler {
      type: "gaussian"
      std: 0.01
    }
    bias_filler {
      type: "constant"
      value: 0
    }
  }
}
layer {
  name: "relu3"
  type: "ReLU"
  bottom: "conv3"
  top: "conv3"
}
layer {
  name: "conv4"
  type: "Convolution"
  bottom: "conv3"
  top: "conv4"
  param {
    lr_mult: 1
  }
  param {
    lr_mult: 2
  }
  convolution_param {
    num_output: 384
    pad: 1
    kernel_size: 3
    group: 2
    weight_filler {
      type: "gaussian"
      std: 0.01
    }
    bias_filler {
      type: "constant"
      value: 1
    }
  }
}
layer {
  name: "relu4"
  type: "ReLU"
  bottom: "conv4"
  top: "conv4"
}
layer {
  name: "conv5"
  type: "Convolution"
  bottom: "conv4"
  top: "conv5"
  param {
    lr_mult: 1
  }
  param {
    lr_mult: 2
  }
  convolution_param {
    num_output: 256
    pad: 1
    kernel_size: 3
    group: 2
    weight_filler {
      type: "gaussian"
      std: 0.01
    }
    bias_filler {
      type: "constant"
      value: 1
    }
  }
}
layer {
  name: "relu5"
  type: "ReLU"
  bottom: "conv5"
  top: "conv5"
}
layer {
  name: "pool5"
  type: "Pooling"
  bottom: "conv5"
  top: "pool5"
  pooling_param {
    pool: MAX
    kernel_size: 3
    stride: 2
  }
}
layer {
  name: "mid_fc6"
  type: "InnerProduct"
  bottom: "pool5"
  top: "mid_fc6"
  param {
    lr_mult: 10
  }
  param {
    lr_mult: 20
  }
  inner_product_param {
    num_output: 2048
    weight_filler {
      type: "gaussian"
      std: 0.005
    }
    bias_filler {
      type: "constant"
      value: 1
    }
  }
}
layer {
  name: "relu6"
  type: "ReLU"
  bottom: "mid_fc6"
  top: "mid_fc6"
}
layer {
  name: "drop6"
  type: "Dropout"
  bottom: "mid_fc6"
  top: "mid_fc6"
  dropout_param {
    dropout_ratio: 0.5
  }
}
layer {
  name: "mid_fc7"
  type: "InnerProduct"
  bottom: "mid_fc6"
  top: "mid_fc7"
  param {
    lr_mult: 10
  }
  param {
    lr_mult: 20
  }
  inner_product_param {
    num_output: 2048
    weight_filler {
      type: "gaussian"
      std: 0.005
    }
    bias_filler {
      type: "constant"
      value: 1
    }
  }
}
layer {
  name: "relu7"
  type: "ReLU"
  bottom: "mid_fc7"
  top: "mid_fc7"
}
layer {
  name: "drop7"
  type: "Dropout"
  bottom: "mid_fc7"
  top: "mid_fc7"
  dropout_param {
    dropout_ratio: 0.5
  }
}
layer {
  name: "score"
  type: "InnerProduct"
  bottom: "mid_fc7"
  top: "score"
  param {
    lr_mult: 10
  }
  param {
    lr_mult: 20
  }
  inner_product_param {
    num_output: 50
    weight_filler {
      type: "gaussian"
      std: 0.01
    }
    bias_filler {
      type: "constant"
      value: 0
    }
  }
}
layer {
  name: "loss"
  type: "SoftmaxWithLoss"
  bottom: "score"
  bottom: "label"
  top: "loss"
}
I0405 12:32:33.225489  1848 layer_factory.hpp:77] Creating layer ior50
I0405 12:32:33.225566  1848 net.cpp:84] Creating Layer ior50
I0405 12:32:33.225651  1848 net.cpp:380] ior50 -> data
I0405 12:32:33.225720  1848 net.cpp:380] ior50 -> label
I0405 12:32:33.225792  1848 image_data_layer.cpp:38] Opening file data/sII_cum/run0/train_batch_00_filelist.txt
I0405 12:32:33.231019  1848 image_data_layer.cpp:53] Shuffling data
I0405 12:32:33.231583  1848 image_data_layer.cpp:63] A total of 23980 images.
I0405 12:32:33.234236  1848 image_data_layer.cpp:90] output data size: 256,3,128,128
I0405 12:32:33.371083  1848 net.cpp:122] Setting up ior50
I0405 12:32:33.371428  1848 net.cpp:129] Top shape: 256 3 128 128 (12582912)
I0405 12:32:33.371526  1848 net.cpp:129] Top shape: 256 (256)
I0405 12:32:33.371600  1848 net.cpp:137] Memory required for data: 50332672
I0405 12:32:33.371690  1848 layer_factory.hpp:77] Creating layer conv1
I0405 12:32:33.371778  1848 net.cpp:84] Creating Layer conv1
I0405 12:32:33.371850  1848 net.cpp:406] conv1 <- data
I0405 12:32:33.371932  1848 net.cpp:380] conv1 -> conv1
I0405 12:32:33.372978  1848 net.cpp:122] Setting up conv1
I0405 12:32:33.373073  1848 net.cpp:129] Top shape: 256 96 30 30 (22118400)
I0405 12:32:33.373176  1848 net.cpp:137] Memory required for data: 138806272
I0405 12:32:33.373260  1848 layer_factory.hpp:77] Creating layer relu1
I0405 12:32:33.373347  1848 net.cpp:84] Creating Layer relu1
I0405 12:32:33.373430  1848 net.cpp:406] relu1 <- conv1
I0405 12:32:33.373502  1848 net.cpp:367] relu1 -> conv1 (in-place)
I0405 12:32:33.373579  1848 net.cpp:122] Setting up relu1
I0405 12:32:33.373679  1848 net.cpp:129] Top shape: 256 96 30 30 (22118400)
I0405 12:32:33.373757  1848 net.cpp:137] Memory required for data: 227279872
I0405 12:32:33.373829  1848 layer_factory.hpp:77] Creating layer pool1
I0405 12:32:33.373908  1848 net.cpp:84] Creating Layer pool1
I0405 12:32:33.373980  1848 net.cpp:406] pool1 <- conv1
I0405 12:32:33.374051  1848 net.cpp:380] pool1 -> pool1
I0405 12:32:33.377270  1848 net.cpp:122] Setting up pool1
I0405 12:32:33.377435  1848 net.cpp:129] Top shape: 256 96 15 15 (5529600)
I0405 12:32:33.377526  1848 net.cpp:137] Memory required for data: 249398272
I0405 12:32:33.377672  1848 layer_factory.hpp:77] Creating layer norm1
I0405 12:32:33.377806  1848 net.cpp:84] Creating Layer norm1
I0405 12:32:33.377902  1848 net.cpp:406] norm1 <- pool1
I0405 12:32:33.377982  1848 net.cpp:380] norm1 -> norm1
I0405 12:32:33.378084  1848 net.cpp:122] Setting up norm1
I0405 12:32:33.378182  1848 net.cpp:129] Top shape: 256 96 15 15 (5529600)
I0405 12:32:33.378253  1848 net.cpp:137] Memory required for data: 271516672
I0405 12:32:33.378335  1848 layer_factory.hpp:77] Creating layer conv2
I0405 12:32:33.378422  1848 net.cpp:84] Creating Layer conv2
I0405 12:32:33.378707  1848 net.cpp:406] conv2 <- norm1
I0405 12:32:33.378849  1848 net.cpp:380] conv2 -> conv2
I0405 12:32:33.381944  1848 net.cpp:122] Setting up conv2
I0405 12:32:33.382104  1848 net.cpp:129] Top shape: 256 256 15 15 (14745600)
I0405 12:32:33.382189  1848 net.cpp:137] Memory required for data: 330499072
I0405 12:32:33.382274  1848 layer_factory.hpp:77] Creating layer relu2
I0405 12:32:33.382354  1848 net.cpp:84] Creating Layer relu2
I0405 12:32:33.382431  1848 net.cpp:406] relu2 <- conv2
I0405 12:32:33.382504  1848 net.cpp:367] relu2 -> conv2 (in-place)
I0405 12:32:33.382575  1848 net.cpp:122] Setting up relu2
I0405 12:32:33.382663  1848 net.cpp:129] Top shape: 256 256 15 15 (14745600)
I0405 12:32:33.382741  1848 net.cpp:137] Memory required for data: 389481472
I0405 12:32:33.382814  1848 layer_factory.hpp:77] Creating layer pool2
I0405 12:32:33.382886  1848 net.cpp:84] Creating Layer pool2
I0405 12:32:33.382954  1848 net.cpp:406] pool2 <- conv2
I0405 12:32:33.383028  1848 net.cpp:380] pool2 -> pool2
I0405 12:32:33.383148  1848 net.cpp:122] Setting up pool2
I0405 12:32:33.383230  1848 net.cpp:129] Top shape: 256 256 7 7 (3211264)
I0405 12:32:33.383302  1848 net.cpp:137] Memory required for data: 402326528
I0405 12:32:33.383370  1848 layer_factory.hpp:77] Creating layer norm2
I0405 12:32:33.383445  1848 net.cpp:84] Creating Layer norm2
I0405 12:32:33.383628  1848 net.cpp:406] norm2 <- pool2
I0405 12:32:33.383745  1848 net.cpp:380] norm2 -> norm2
I0405 12:32:33.383854  1848 net.cpp:122] Setting up norm2
I0405 12:32:33.383941  1848 net.cpp:129] Top shape: 256 256 7 7 (3211264)
I0405 12:32:33.384006  1848 net.cpp:137] Memory required for data: 415171584
I0405 12:32:33.384070  1848 layer_factory.hpp:77] Creating layer conv3
I0405 12:32:33.384147  1848 net.cpp:84] Creating Layer conv3
I0405 12:32:33.384212  1848 net.cpp:406] conv3 <- norm2
I0405 12:32:33.384282  1848 net.cpp:380] conv3 -> conv3
I0405 12:32:33.394189  1848 net.cpp:122] Setting up conv3
I0405 12:32:33.394322  1848 net.cpp:129] Top shape: 256 384 7 7 (4816896)
I0405 12:32:33.394402  1848 net.cpp:137] Memory required for data: 434439168
I0405 12:32:33.394461  1848 layer_factory.hpp:77] Creating layer relu3
I0405 12:32:33.394520  1848 net.cpp:84] Creating Layer relu3
I0405 12:32:33.394582  1848 net.cpp:406] relu3 <- conv3
I0405 12:32:33.394680  1848 net.cpp:367] relu3 -> conv3 (in-place)
I0405 12:32:33.394821  1848 net.cpp:122] Setting up relu3
I0405 12:32:33.394922  1848 net.cpp:129] Top shape: 256 384 7 7 (4816896)
I0405 12:32:33.395018  1848 net.cpp:137] Memory required for data: 453706752
I0405 12:32:33.395108  1848 layer_factory.hpp:77] Creating layer conv4
I0405 12:32:33.395166  1848 net.cpp:84] Creating Layer conv4
I0405 12:32:33.395222  1848 net.cpp:406] conv4 <- conv3
I0405 12:32:33.395280  1848 net.cpp:380] conv4 -> conv4
I0405 12:32:33.403677  1848 net.cpp:122] Setting up conv4
I0405 12:32:33.403802  1848 net.cpp:129] Top shape: 256 384 7 7 (4816896)
I0405 12:32:33.403898  1848 net.cpp:137] Memory required for data: 472974336
I0405 12:32:33.403951  1848 layer_factory.hpp:77] Creating layer relu4
I0405 12:32:33.404019  1848 net.cpp:84] Creating Layer relu4
I0405 12:32:33.404103  1848 net.cpp:406] relu4 <- conv4
I0405 12:32:33.404170  1848 net.cpp:367] relu4 -> conv4 (in-place)
I0405 12:32:33.404222  1848 net.cpp:122] Setting up relu4
I0405 12:32:33.404320  1848 net.cpp:129] Top shape: 256 384 7 7 (4816896)
I0405 12:32:33.404428  1848 net.cpp:137] Memory required for data: 492241920
I0405 12:32:33.404592  1848 layer_factory.hpp:77] Creating layer conv5
I0405 12:32:33.404767  1848 net.cpp:84] Creating Layer conv5
I0405 12:32:33.404898  1848 net.cpp:406] conv5 <- conv4
I0405 12:32:33.404979  1848 net.cpp:380] conv5 -> conv5
I0405 12:32:33.410531  1848 net.cpp:122] Setting up conv5
I0405 12:32:33.410702  1848 net.cpp:129] Top shape: 256 256 7 7 (3211264)
I0405 12:32:33.410773  1848 net.cpp:137] Memory required for data: 505086976
I0405 12:32:33.410853  1848 layer_factory.hpp:77] Creating layer relu5
I0405 12:32:33.410936  1848 net.cpp:84] Creating Layer relu5
I0405 12:32:33.411002  1848 net.cpp:406] relu5 <- conv5
I0405 12:32:33.411062  1848 net.cpp:367] relu5 -> conv5 (in-place)
I0405 12:32:33.411146  1848 net.cpp:122] Setting up relu5
I0405 12:32:33.411231  1848 net.cpp:129] Top shape: 256 256 7 7 (3211264)
I0405 12:32:33.411304  1848 net.cpp:137] Memory required for data: 517932032
I0405 12:32:33.411360  1848 layer_factory.hpp:77] Creating layer pool5
I0405 12:32:33.411418  1848 net.cpp:84] Creating Layer pool5
I0405 12:32:33.411473  1848 net.cpp:406] pool5 <- conv5
I0405 12:32:33.411530  1848 net.cpp:380] pool5 -> pool5
I0405 12:32:33.411628  1848 net.cpp:122] Setting up pool5
I0405 12:32:33.411713  1848 net.cpp:129] Top shape: 256 256 3 3 (589824)
I0405 12:32:33.411777  1848 net.cpp:137] Memory required for data: 520291328
I0405 12:32:33.411834  1848 layer_factory.hpp:77] Creating layer mid_fc6
I0405 12:32:33.411895  1848 net.cpp:84] Creating Layer mid_fc6
I0405 12:32:33.411953  1848 net.cpp:406] mid_fc6 <- pool5
I0405 12:32:33.412012  1848 net.cpp:380] mid_fc6 -> mid_fc6
I0405 12:32:33.461948  1848 net.cpp:122] Setting up mid_fc6
I0405 12:32:33.462098  1848 net.cpp:129] Top shape: 256 2048 (524288)
I0405 12:32:33.462190  1848 net.cpp:137] Memory required for data: 522388480
I0405 12:32:33.462262  1848 layer_factory.hpp:77] Creating layer relu6
I0405 12:32:33.462352  1848 net.cpp:84] Creating Layer relu6
I0405 12:32:33.462420  1848 net.cpp:406] relu6 <- mid_fc6
I0405 12:32:33.462499  1848 net.cpp:367] relu6 -> mid_fc6 (in-place)
I0405 12:32:33.462584  1848 net.cpp:122] Setting up relu6
I0405 12:32:33.462684  1848 net.cpp:129] Top shape: 256 2048 (524288)
I0405 12:32:33.462776  1848 net.cpp:137] Memory required for data: 524485632
I0405 12:32:33.462859  1848 layer_factory.hpp:77] Creating layer drop6
I0405 12:32:33.462932  1848 net.cpp:84] Creating Layer drop6
I0405 12:32:33.463003  1848 net.cpp:406] drop6 <- mid_fc6
I0405 12:32:33.463069  1848 net.cpp:367] drop6 -> mid_fc6 (in-place)
I0405 12:32:33.463160  1848 net.cpp:122] Setting up drop6
I0405 12:32:33.463259  1848 net.cpp:129] Top shape: 256 2048 (524288)
I0405 12:32:33.463330  1848 net.cpp:137] Memory required for data: 526582784
I0405 12:32:33.463395  1848 layer_factory.hpp:77] Creating layer mid_fc7
I0405 12:32:33.463470  1848 net.cpp:84] Creating Layer mid_fc7
I0405 12:32:33.463538  1848 net.cpp:406] mid_fc7 <- mid_fc6
I0405 12:32:33.463647  1848 net.cpp:380] mid_fc7 -> mid_fc7
I0405 12:32:33.509207  1848 net.cpp:122] Setting up mid_fc7
I0405 12:32:33.509371  1848 net.cpp:129] Top shape: 256 2048 (524288)
I0405 12:32:33.509480  1848 net.cpp:137] Memory required for data: 528679936
I0405 12:32:33.509559  1848 layer_factory.hpp:77] Creating layer relu7
I0405 12:32:33.509657  1848 net.cpp:84] Creating Layer relu7
I0405 12:32:33.509758  1848 net.cpp:406] relu7 <- mid_fc7
I0405 12:32:33.509843  1848 net.cpp:367] relu7 -> mid_fc7 (in-place)
I0405 12:32:33.509915  1848 net.cpp:122] Setting up relu7
I0405 12:32:33.509991  1848 net.cpp:129] Top shape: 256 2048 (524288)
I0405 12:32:33.510061  1848 net.cpp:137] Memory required for data: 530777088
I0405 12:32:33.510146  1848 layer_factory.hpp:77] Creating layer drop7
I0405 12:32:33.510234  1848 net.cpp:84] Creating Layer drop7
I0405 12:32:33.510310  1848 net.cpp:406] drop7 <- mid_fc7
I0405 12:32:33.510381  1848 net.cpp:367] drop7 -> mid_fc7 (in-place)
I0405 12:32:33.510483  1848 net.cpp:122] Setting up drop7
I0405 12:32:33.510581  1848 net.cpp:129] Top shape: 256 2048 (524288)
I0405 12:32:33.510668  1848 net.cpp:137] Memory required for data: 532874240
I0405 12:32:33.510742  1848 layer_factory.hpp:77] Creating layer score
I0405 12:32:33.510814  1848 net.cpp:84] Creating Layer score
I0405 12:32:33.510880  1848 net.cpp:406] score <- mid_fc7
I0405 12:32:33.510951  1848 net.cpp:380] score -> score
I0405 12:32:33.512081  1848 net.cpp:122] Setting up score
I0405 12:32:33.512176  1848 net.cpp:129] Top shape: 256 50 (12800)
I0405 12:32:33.512271  1848 net.cpp:137] Memory required for data: 532925440
I0405 12:32:33.512342  1848 layer_factory.hpp:77] Creating layer loss
I0405 12:32:33.512413  1848 net.cpp:84] Creating Layer loss
I0405 12:32:33.512498  1848 net.cpp:406] loss <- score
I0405 12:32:33.512588  1848 net.cpp:406] loss <- label
I0405 12:32:33.512701  1848 net.cpp:380] loss -> loss
I0405 12:32:33.512771  1848 layer_factory.hpp:77] Creating layer loss
…
I0405 12:32:33.516965  1848 net.cpp:294] The NetState phase (1) differed from the phase (0) specified by a rule in layer ior50
I0405 12:32:33.517174  1848 net.cpp:51] Initializing net from parameters: 
name: "BVLC_CORe50_mid_CaffeNet"
state {
  phase: TEST
}
layer {
  name: "ior50"
  type: "ImageData"
  top: "data"
  top: "label"
  include {
    phase: TEST
  }
  transform_param {
    mean_value: 104
    mean_value: 117
    mean_value: 123
  }
  image_data_param {
    source: "data/sII_cum/run0/test_filelist.txt"
    batch_size: 100
    shuffle: true
    root_folder: "data/core50_128x128/"
  }
}
layer {
  name: "conv1"
  type: "Convolution"
  bottom: "data"
  top: "conv1"
  param {
    lr_mult: 1
  }
  param {
    lr_mult: 2
  }
  convolution_param {
    num_output: 96
    kernel_size: 11
    stride: 4
    weight_filler {
      type: "gaussian"
      std: 0.01
    }
    bias_filler {
      type: "constant"
      value: 0
    }
  }
}
layer {
  name: "relu1"
  type: "ReLU"
  bottom: "conv1"
  top: "conv1"
}
layer {
  name: "pool1"
  type: "Pooling"
  bottom: "conv1"
  top: "pool1"
  pooling_param {
    pool: MAX
    kernel_size: 3
    stride: 2
  }
}
layer {
  name: "norm1"
  type: "LRN"
  bottom: "pool1"
  top: "norm1"
  lrn_param {
    local_size: 5
    alpha: 0.0001
    beta: 0.75
  }
}
layer {
  name: "conv2"
  type: "Convolution"
  bottom: "norm1"
  top: "conv2"
  param {
    lr_mult: 1
  }
  param {
    lr_mult: 2
  }
  convolution_param {
    num_output: 256
    pad: 2
    kernel_size: 5
    group: 2
    weight_filler {
      type: "gaussian"
      std: 0.01
    }
    bias_filler {
      type: "constant"
      value: 1
    }
  }
}
layer {
  name: "relu2"
  type: "ReLU"
  bottom: "conv2"
  top: "conv2"
}
layer {
  name: "pool2"
  type: "Pooling"
  bottom: "conv2"
  top: "pool2"
  pooling_param {
    pool: MAX
    kernel_size: 3
    stride: 2
  }
}
layer {
  name: "norm2"
  type: "LRN"
  bottom: "pool2"
  top: "norm2"
  lrn_param {
    local_size: 5
    alpha: 0.0001
    beta: 0.75
  }
}
layer {
  name: "conv3"
  type: "Convolution"
  bottom: "norm2"
  top: "conv3"
  param {
    lr_mult: 1
  }
  param {
    lr_mult: 2
  }
  convolution_param {
    num_output: 384
    pad: 1
    kernel_size: 3
    weight_filler {
      type: "gaussian"
      std: 0.01
    }
    bias_filler {
      type: "constant"
      value: 0
    }
  }
}
layer {
  name: "relu3"
  type: "ReLU"
  bottom: "conv3"
  top: "conv3"
}
layer {
  name: "conv4"
  type: "Convolution"
  bottom: "conv3"
  top: "conv4"
  param {
    lr_mult: 1
  }
  param {
    lr_mult: 2
  }
  convolution_param {
    num_output: 384
    pad: 1
    kernel_size: 3
    group: 2
    weight_filler {
      type: "gaussian"
      std: 0.01
    }
    bias_filler {
      type: "constant"
      value: 1
    }
  }
}
layer {
  name: "relu4"
  type: "ReLU"
  bottom: "conv4"
  top: "conv4"
}
layer {
  name: "conv5"
  type: "Convolution"
  bottom: "conv4"
  top: "conv5"
  param {
    lr_mult: 1
  }
  param {
    lr_mult: 2
  }
  convolution_param {
    num_output: 256
    pad: 1
    kernel_size: 3
    group: 2
    weight_filler {
      type: "gaussian"
      std: 0.01
    }
    bias_filler {
      type: "constant"
      value: 1
    }
  }
}
layer {
  name: "relu5"
  type: "ReLU"
  bottom: "conv5"
  top: "conv5"
}
layer {
  name: "pool5"
  type: "Pooling"
  bottom: "conv5"
  top: "pool5"
  pooling_param {
    pool: MAX
    kernel_size: 3
    stride: 2
  }
}
layer {
  name: "mid_fc6"
  type: "InnerProduct"
  bottom: "pool5"
  top: "mid_fc6"
  param {
    lr_mult: 10
  }
  param {
    lr_mult: 20
  }
  inner_product_param {
    num_output: 2048
    weight_filler {
      type: "gaussian"
      std: 0.005
    }
    bias_filler {
      type: "constant"
      value: 1
    }
  }
}
layer {
  name: "relu6"
  type: "ReLU"
  bottom: "mid_fc6"
  top: "mid_fc6"
}
layer {
  name: "drop6"
  type: "Dropout"
  bottom: "mid_fc6"
  top: "mid_fc6"
  dropout_param {
    dropout_ratio: 0.5
  }
}
layer {
  name: "mid_fc7"
  type: "InnerProduct"
  bottom: "mid_fc6"
  top: "mid_fc7"
  param {
    lr_mult: 10
  }
  param {
    lr_mult: 20
  }
  inner_product_param {
    num_output: 2048
    weight_filler {
      type: "gaussian"
      std: 0.005
    }
    bias_filler {
      type: "constant"
      value: 1
    }
  }
}
layer {
  name: "relu7"
  type: "ReLU"
  bottom: "mid_fc7"
  top: "mid_fc7"
}
layer {
  name: "drop7"
  type: "Dropout"
  bottom: "mid_fc7"
  top: "mid_fc7"
  dropout_param {
    dropout_ratio: 0.5
  }
}
layer {
  name: "score"
  type: "InnerProduct"
  bottom: "mid_fc7"
  top: "score"
  param {
    lr_mult: 10
  }
  param {
    lr_mult: 20
  }
  inner_product_param {
    num_output: 50
    weight_filler {
      type: "gaussian"
      std: 0.01
    }
    bias_filler {
      type: "constant"
      value: 0
    }
  }
}
layer {
  name: "accuracy"
  type: "Accuracy"
  bottom: "score"
  bottom: "label"
  top: "accuracy"
  top: "accuracies"
  include {
    phase: TEST
  }
}
layer {
  name: "loss"
  type: "SoftmaxWithLoss"
  bottom: "score"
  bottom: "label"
  top: "loss"
}
I0405 12:32:33.517572  1848 layer_factory.hpp:77] Creating layer ior50
I0405 12:32:33.517745  1848 net.cpp:84] Creating Layer ior50
I0405 12:32:33.517925  1848 net.cpp:380] ior50 -> data
I0405 12:32:33.518102  1848 net.cpp:380] ior50 -> label
I0405 12:32:33.518195  1848 image_data_layer.cpp:38] Opening file data/sII_cum/run0/test_filelist.txt
I0405 12:32:33.526983  1848 image_data_layer.cpp:53] Shuffling data
I0405 12:32:33.528079  1848 image_data_layer.cpp:63] A total of 44972 images.
I0405 12:32:33.529042  1848 image_data_layer.cpp:90] output data size: 100,3,128,128
I0405 12:32:33.579752  1848 net.cpp:122] Setting up ior50
I0405 12:32:33.579921  1848 net.cpp:129] Top shape: 100 3 128 128 (4915200)
I0405 12:32:33.579988  1848 net.cpp:129] Top shape: 100 (100)
I0405 12:32:33.580055  1848 net.cpp:137] Memory required for data: 19661200
I0405 12:32:33.580168  1848 layer_factory.hpp:77] Creating layer label_ior50_1_split
I0405 12:32:33.580333  1848 net.cpp:84] Creating Layer label_ior50_1_split
I0405 12:32:33.580504  1848 net.cpp:406] label_ior50_1_split <- label
I0405 12:32:33.580628  1848 net.cpp:380] label_ior50_1_split -> label_ior50_1_split_0
I0405 12:32:33.580723  1848 net.cpp:380] label_ior50_1_split -> label_ior50_1_split_1
I0405 12:32:33.580864  1848 net.cpp:122] Setting up label_ior50_1_split
I0405 12:32:33.580973  1848 net.cpp:129] Top shape: 100 (100)
I0405 12:32:33.581068  1848 net.cpp:129] Top shape: 100 (100)
I0405 12:32:33.581138  1848 net.cpp:137] Memory required for data: 19662000
I0405 12:32:33.581207  1848 layer_factory.hpp:77] Creating layer conv1
I0405 12:32:33.581300  1848 net.cpp:84] Creating Layer conv1
I0405 12:32:33.581391  1848 net.cpp:406] conv1 <- data
I0405 12:32:33.581466  1848 net.cpp:380] conv1 -> conv1
I0405 12:32:33.583894  1848 net.cpp:122] Setting up conv1
I0405 12:32:33.584059  1848 net.cpp:129] Top shape: 100 96 30 30 (8640000)
I0405 12:32:33.584182  1848 net.cpp:137] Memory required for data: 54222000
I0405 12:32:33.584281  1848 layer_factory.hpp:77] Creating layer relu1
I0405 12:32:33.584766  1848 net.cpp:84] Creating Layer relu1
I0405 12:32:33.584890  1848 net.cpp:406] relu1 <- conv1
I0405 12:32:33.584982  1848 net.cpp:367] relu1 -> conv1 (in-place)
I0405 12:32:33.585069  1848 net.cpp:122] Setting up relu1
I0405 12:32:33.585180  1848 net.cpp:129] Top shape: 100 96 30 30 (8640000)
I0405 12:32:33.585297  1848 net.cpp:137] Memory required for data: 88782000
I0405 12:32:33.585449  1848 layer_factory.hpp:77] Creating layer pool1
I0405 12:32:33.585536  1848 net.cpp:84] Creating Layer pool1
I0405 12:32:33.585606  1848 net.cpp:406] pool1 <- conv1
I0405 12:32:33.585716  1848 net.cpp:380] pool1 -> pool1
I0405 12:32:33.585853  1848 net.cpp:122] Setting up pool1
I0405 12:32:33.585963  1848 net.cpp:129] Top shape: 100 96 15 15 (2160000)
I0405 12:32:33.586056  1848 net.cpp:137] Memory required for data: 97422000
I0405 12:32:33.586135  1848 layer_factory.hpp:77] Creating layer norm1
I0405 12:32:33.586259  1848 net.cpp:84] Creating Layer norm1
I0405 12:32:33.586387  1848 net.cpp:406] norm1 <- pool1
I0405 12:32:33.586477  1848 net.cpp:380] norm1 -> norm1
I0405 12:32:33.586594  1848 net.cpp:122] Setting up norm1
I0405 12:32:33.586688  1848 net.cpp:129] Top shape: 100 96 15 15 (2160000)
I0405 12:32:33.586802  1848 net.cpp:137] Memory required for data: 106062000
I0405 12:32:33.586902  1848 layer_factory.hpp:77] Creating layer conv2
I0405 12:32:33.586988  1848 net.cpp:84] Creating Layer conv2
I0405 12:32:33.587064  1848 net.cpp:406] conv2 <- norm1
I0405 12:32:33.587143  1848 net.cpp:380] conv2 -> conv2
I0405 12:32:33.593277  1848 net.cpp:122] Setting up conv2
I0405 12:32:33.593434  1848 net.cpp:129] Top shape: 100 256 15 15 (5760000)
I0405 12:32:33.593538  1848 net.cpp:137] Memory required for data: 129102000
I0405 12:32:33.593655  1848 layer_factory.hpp:77] Creating layer relu2
I0405 12:32:33.593758  1848 net.cpp:84] Creating Layer relu2
I0405 12:32:33.593861  1848 net.cpp:406] relu2 <- conv2
I0405 12:32:33.593932  1848 net.cpp:367] relu2 -> conv2 (in-place)
I0405 12:32:33.594044  1848 net.cpp:122] Setting up relu2
I0405 12:32:33.594168  1848 net.cpp:129] Top shape: 100 256 15 15 (5760000)
I0405 12:32:33.594259  1848 net.cpp:137] Memory required for data: 152142000
I0405 12:32:33.594349  1848 layer_factory.hpp:77] Creating layer pool2
I0405 12:32:33.594445  1848 net.cpp:84] Creating Layer pool2
I0405 12:32:33.594518  1848 net.cpp:406] pool2 <- conv2
I0405 12:32:33.594595  1848 net.cpp:380] pool2 -> pool2
I0405 12:32:33.594751  1848 net.cpp:122] Setting up pool2
I0405 12:32:33.594882  1848 net.cpp:129] Top shape: 100 256 7 7 (1254400)
I0405 12:32:33.594949  1848 net.cpp:137] Memory required for data: 157159600
I0405 12:32:33.595101  1848 layer_factory.hpp:77] Creating layer norm2
I0405 12:32:33.595216  1848 net.cpp:84] Creating Layer norm2
I0405 12:32:33.595319  1848 net.cpp:406] norm2 <- pool2
I0405 12:32:33.595456  1848 net.cpp:380] norm2 -> norm2
I0405 12:32:33.595580  1848 net.cpp:122] Setting up norm2
I0405 12:32:33.595705  1848 net.cpp:129] Top shape: 100 256 7 7 (1254400)
I0405 12:32:33.595788  1848 net.cpp:137] Memory required for data: 162177200
I0405 12:32:33.595898  1848 layer_factory.hpp:77] Creating layer conv3
I0405 12:32:33.596010  1848 net.cpp:84] Creating Layer conv3
I0405 12:32:33.596087  1848 net.cpp:406] conv3 <- norm2
I0405 12:32:33.596168  1848 net.cpp:380] conv3 -> conv3
I0405 12:32:33.612339  1848 net.cpp:122] Setting up conv3
I0405 12:32:33.612510  1848 net.cpp:129] Top shape: 100 384 7 7 (1881600)
I0405 12:32:33.612670  1848 net.cpp:137] Memory required for data: 169703600
I0405 12:32:33.612749  1848 layer_factory.hpp:77] Creating layer relu3
I0405 12:32:33.612828  1848 net.cpp:84] Creating Layer relu3
I0405 12:32:33.612905  1848 net.cpp:406] relu3 <- conv3
I0405 12:32:33.613013  1848 net.cpp:367] relu3 -> conv3 (in-place)
I0405 12:32:33.613086  1848 net.cpp:122] Setting up relu3
I0405 12:32:33.613155  1848 net.cpp:129] Top shape: 100 384 7 7 (1881600)
I0405 12:32:33.613222  1848 net.cpp:137] Memory required for data: 177230000
I0405 12:32:33.613287  1848 layer_factory.hpp:77] Creating layer conv4
I0405 12:32:33.613361  1848 net.cpp:84] Creating Layer conv4
I0405 12:32:33.613445  1848 net.cpp:406] conv4 <- conv3
I0405 12:32:33.613545  1848 net.cpp:380] conv4 -> conv4
I0405 12:32:33.625789  1848 net.cpp:122] Setting up conv4
I0405 12:32:33.625943  1848 net.cpp:129] Top shape: 100 384 7 7 (1881600)
I0405 12:32:33.626024  1848 net.cpp:137] Memory required for data: 184756400
I0405 12:32:33.626116  1848 layer_factory.hpp:77] Creating layer relu4
I0405 12:32:33.626207  1848 net.cpp:84] Creating Layer relu4
I0405 12:32:33.626303  1848 net.cpp:406] relu4 <- conv4
I0405 12:32:33.626402  1848 net.cpp:367] relu4 -> conv4 (in-place)
I0405 12:32:33.626493  1848 net.cpp:122] Setting up relu4
I0405 12:32:33.626579  1848 net.cpp:129] Top shape: 100 384 7 7 (1881600)
I0405 12:32:33.626682  1848 net.cpp:137] Memory required for data: 192282800
I0405 12:32:33.626767  1848 layer_factory.hpp:77] Creating layer conv5
I0405 12:32:33.626864  1848 net.cpp:84] Creating Layer conv5
I0405 12:32:33.626945  1848 net.cpp:406] conv5 <- conv4
I0405 12:32:33.627029  1848 net.cpp:380] conv5 -> conv5
I0405 12:32:33.635254  1848 net.cpp:122] Setting up conv5
I0405 12:32:33.635355  1848 net.cpp:129] Top shape: 100 256 7 7 (1254400)
I0405 12:32:33.635471  1848 net.cpp:137] Memory required for data: 197300400
I0405 12:32:33.635592  1848 layer_factory.hpp:77] Creating layer relu5
I0405 12:32:33.635764  1848 net.cpp:84] Creating Layer relu5
I0405 12:32:33.635923  1848 net.cpp:406] relu5 <- conv5
I0405 12:32:33.636057  1848 net.cpp:367] relu5 -> conv5 (in-place)
I0405 12:32:33.636147  1848 net.cpp:122] Setting up relu5
I0405 12:32:33.636229  1848 net.cpp:129] Top shape: 100 256 7 7 (1254400)
I0405 12:32:33.636317  1848 net.cpp:137] Memory required for data: 202318000
I0405 12:32:33.636401  1848 layer_factory.hpp:77] Creating layer pool5
I0405 12:32:33.636479  1848 net.cpp:84] Creating Layer pool5
I0405 12:32:33.636595  1848 net.cpp:406] pool5 <- conv5
I0405 12:32:33.636708  1848 net.cpp:380] pool5 -> pool5
I0405 12:32:33.636948  1848 net.cpp:122] Setting up pool5
I0405 12:32:33.637069  1848 net.cpp:129] Top shape: 100 256 3 3 (230400)
I0405 12:32:33.637143  1848 net.cpp:137] Memory required for data: 203239600
I0405 12:32:33.637229  1848 layer_factory.hpp:77] Creating layer mid_fc6
I0405 12:32:33.637323  1848 net.cpp:84] Creating Layer mid_fc6
I0405 12:32:33.637442  1848 net.cpp:406] mid_fc6 <- pool5
I0405 12:32:33.637522  1848 net.cpp:380] mid_fc6 -> mid_fc6
I0405 12:32:33.722764  1848 net.cpp:122] Setting up mid_fc6
I0405 12:32:33.722966  1848 net.cpp:129] Top shape: 100 2048 (204800)
I0405 12:32:33.723065  1848 net.cpp:137] Memory required for data: 204058800
I0405 12:32:33.723150  1848 layer_factory.hpp:77] Creating layer relu6
I0405 12:32:33.723244  1848 net.cpp:84] Creating Layer relu6
I0405 12:32:33.723332  1848 net.cpp:406] relu6 <- mid_fc6
I0405 12:32:33.723418  1848 net.cpp:367] relu6 -> mid_fc6 (in-place)
I0405 12:32:33.723500  1848 net.cpp:122] Setting up relu6
I0405 12:32:33.723582  1848 net.cpp:129] Top shape: 100 2048 (204800)
I0405 12:32:33.723683  1848 net.cpp:137] Memory required for data: 204878000
I0405 12:32:33.723773  1848 layer_factory.hpp:77] Creating layer drop6
I0405 12:32:33.723858  1848 net.cpp:84] Creating Layer drop6
I0405 12:32:33.723942  1848 net.cpp:406] drop6 <- mid_fc6
I0405 12:32:33.724007  1848 net.cpp:367] drop6 -> mid_fc6 (in-place)
I0405 12:32:33.724118  1848 net.cpp:122] Setting up drop6
I0405 12:32:33.724244  1848 net.cpp:129] Top shape: 100 2048 (204800)
I0405 12:32:33.724332  1848 net.cpp:137] Memory required for data: 205697200
I0405 12:32:33.724416  1848 layer_factory.hpp:77] Creating layer mid_fc7
I0405 12:32:33.724501  1848 net.cpp:84] Creating Layer mid_fc7
I0405 12:32:33.724581  1848 net.cpp:406] mid_fc7 <- mid_fc6
I0405 12:32:33.724690  1848 net.cpp:380] mid_fc7 -> mid_fc7
I0405 12:32:33.798593  1848 net.cpp:122] Setting up mid_fc7
I0405 12:32:33.798835  1848 net.cpp:129] Top shape: 100 2048 (204800)
I0405 12:32:33.799078  1848 net.cpp:137] Memory required for data: 206516400
I0405 12:32:33.799175  1848 layer_factory.hpp:77] Creating layer relu7
I0405 12:32:33.799283  1848 net.cpp:84] Creating Layer relu7
I0405 12:32:33.799554  1848 net.cpp:406] relu7 <- mid_fc7
I0405 12:32:33.799676  1848 net.cpp:367] relu7 -> mid_fc7 (in-place)
I0405 12:32:33.799823  1848 net.cpp:122] Setting up relu7
I0405 12:32:33.799906  1848 net.cpp:129] Top shape: 100 2048 (204800)
I0405 12:32:33.799995  1848 net.cpp:137] Memory required for data: 207335600
I0405 12:32:33.800068  1848 layer_factory.hpp:77] Creating layer drop7
I0405 12:32:33.800159  1848 net.cpp:84] Creating Layer drop7
I0405 12:32:33.800249  1848 net.cpp:406] drop7 <- mid_fc7
I0405 12:32:33.800328  1848 net.cpp:367] drop7 -> mid_fc7 (in-place)
I0405 12:32:33.800439  1848 net.cpp:122] Setting up drop7
I0405 12:32:33.800546  1848 net.cpp:129] Top shape: 100 2048 (204800)
I0405 12:32:33.800675  1848 net.cpp:137] Memory required for data: 208154800
I0405 12:32:33.800789  1848 layer_factory.hpp:77] Creating layer score
I0405 12:32:33.800874  1848 net.cpp:84] Creating Layer score
I0405 12:32:33.800962  1848 net.cpp:406] score <- mid_fc7
I0405 12:32:33.801036  1848 net.cpp:380] score -> score
I0405 12:32:33.802937  1848 net.cpp:122] Setting up score
I0405 12:32:33.803038  1848 net.cpp:129] Top shape: 100 50 (5000)
I0405 12:32:33.803122  1848 net.cpp:137] Memory required for data: 208174800
I0405 12:32:33.803220  1848 layer_factory.hpp:77] Creating layer score_score_0_split
I0405 12:32:33.803299  1848 net.cpp:84] Creating Layer score_score_0_split
I0405 12:32:33.803372  1848 net.cpp:406] score_score_0_split <- score
I0405 12:32:33.803445  1848 net.cpp:380] score_score_0_split -> score_score_0_split_0
I0405 12:32:33.803522  1848 net.cpp:380] score_score_0_split -> score_score_0_split_1
I0405 12:32:33.803666  1848 net.cpp:122] Setting up score_score_0_split
I0405 12:32:33.803778  1848 net.cpp:129] Top shape: 100 50 (5000)
I0405 12:32:33.803861  1848 net.cpp:129] Top shape: 100 50 (5000)
I0405 12:32:33.803948  1848 net.cpp:137] Memory required for data: 208214800
I0405 12:32:33.804035  1848 layer_factory.hpp:77] Creating layer accuracy
I0405 12:32:33.804127  1848 net.cpp:84] Creating Layer accuracy
I0405 12:32:33.804208  1848 net.cpp:406] accuracy <- score_score_0_split_0
I0405 12:32:33.804333  1848 net.cpp:406] accuracy <- label_ior50_1_split_0
I0405 12:32:33.804422  1848 net.cpp:380] accuracy -> accuracy
I0405 12:32:33.804507  1848 net.cpp:380] accuracy -> accuracies
I0405 12:32:33.804670  1848 net.cpp:122] Setting up accuracy
I0405 12:32:33.804811  1848 net.cpp:129] Top shape: (1)
I0405 12:32:33.804903  1848 net.cpp:129] Top shape: 50 (50)
I0405 12:32:33.805336  1848 net.cpp:137] Memory required for data: 208215004
I0405 12:32:33.805460  1848 layer_factory.hpp:77] Creating layer loss
I0405 12:32:33.805557  1848 net.cpp:84] Creating Layer loss
I0405 12:32:33.805670  1848 net.cpp:406] loss <- score_score_0_split_1
I0405 12:32:33.805754  1848 net.cpp:406] loss <- label_ior50_1_split_1
I0405 12:32:33.805871  1848 net.cpp:380] loss -> loss
…
